checkpoints/mlp_2downsample_1208/best_model.pt (torch, 958130 bytes, 545 tensors)

context_encoder.fc0.weight f4 [8, 3]
000000 8f 6f ed bd e1 51 d8 be 82 f6 f8 3e af a0 de bd
       -0.11593544 -0.4224997 0.4862557 -0.10870492
000010 96 d8 ed be 6b c6 e7 bd 42 89 c4 3e e0 5c e1 3e
       -0.46454304 -0.11317142 0.3838597 0.4401617
000020 89 42 8d 3e ce 54 c8 3c 84 4f 95 3e f9 cd ae 3e
       0.27589825 0.0244545 0.29162228 0.3414152
000030 9a 4a 65 3d 19 ab 01 3e 2c 59 80 be 5d 20 b4 3e
       0.05597935 0.12662925 -0.25068033 0.3518094
000040 ea 63 f9 3e 33 76 64 be fd e1 90 3e e5 01 3c 3e
       0.4870904 -0.22310714 0.28297415 0.18360098
000050 63 82 e7 be 6e db 62 be 74 38 9f bd 92 f3 6a bd
       -0.45216665 -0.22154018 -0.077744395 -0.057361193

context_encoder.fc0.bias f4 [8]
000000 58 66 ea 3d 6c 77 25 3d e7 86 8b ba 59 ec 20 3e
       0.11445302 0.040397093 -0.0010645062 0.1571516
000010 fe a8 de ba 78 64 8f bd 2a 1b cd 3d 88 27 8c 3d
       -0.001698762 -0.07001585 0.10014947 0.068434775

context_encoder.bn0.weight f4 [8]
000000 3f 87 7f 3f 38 20 7f 3f 8b b2 7d 3f b8 ee 7e 3f
       0.99815744 0.99658537 0.9910056 0.99583006
000010 6c c4 7e 3f 7e 95 80 3f 09 35 80 3f 01 2b 80 3f
       0.99518466 1.0045621 1.0016185 1.0013124

context_encoder.bn0.bias f4 [8]
000000 37 fc 94 3b 73 d6 fb b9 b0 76 a4 3b 75 d0 45 bc
       0.004546668 -0.00048034228 0.0050190315 -0.012073626
000010 d8 06 e7 3b 55 d9 b5 bb 9a 83 fe bb 5d b1 a1 3a
       0.0070503764 -0.0055495896 -0.007767153 0.0012336184

context_encoder.bn0.running_mean f4 [8]
000000 62 21 8b c2 66 29 a0 c2 74 f8 e0 42 be 24 3e 42
       -69.5652 -80.08086 112.48526 47.53588
000010 1d 86 b5 41 c3 38 dd 42 86 fe 64 42 b5 5a 1c c2
       22.690485 110.61086 57.248558 -39.08858

context_encoder.bn0.running_var f4 [8]
000000 1d 8b 2a 45 68 d8 5b 45 99 6a d5 45 2f d5 9b 44
       2728.6946 3517.5254 6829.3247 1246.662
000010 12 5b 91 43 f6 79 d0 45 60 fb ed 44 b9 91 63 44
       290.7115 6671.245 1903.8555 910.2769

context_encoder.encoder.0.mlp1.conv.weight f4 [8, 8, 1, 1]
000000 e0 41 34 3d 64 bf e8 3c 21 41 92 be 93 06 a6 bd
       0.044008136 0.028411575 -0.28565314 -0.08106723
000010 78 bd 9a 3e 5d df 9f be 01 1b 04 3e bb b2 ad 3e
       0.30222678 -0.312251 0.12900926 0.33925423
000020 9d 36 83 be 48 21 02 3d b5 01 a6 bd 89 88 ef bd
       -0.25627604 0.03177002 -0.08105794 -0.11695964
000030 06 6c ad be b2 0d a1 3e 13 df 7c 3e d8 1c b4 3e
       -0.33871478 0.3145576 0.24694471 0.35178256
000040 ee c7 53 be 84 ca 2c 3e d0 1b 08 3e 4f 3b 00 3d
       -0.20681736 0.16874129 0.1329186 0.03130656
000050 0e 0e 88 3e 10 ea 90 bc e8 24 89 3d c8 92 78 be
       0.26573223 -0.017689735 0.066964924 -0.24274743
000060 e5 d8 94 3d 23 c4 76 3e dd 49 43 3e d0 6f 7c bd
       0.07267932 0.24098258 0.19071145 -0.06163007
000070 2c 31 12 3e a7 7d 39 be bd 31 5b 3e 3f b0 cd 3a
       0.1427657 -0.18114339 0.21405692 0.0015692784
000080 95 a0 2e bd cd 0a c2 3d 9c ac b0 bd b8 61 2a be
       -0.04263361 0.09474716 -0.086266726 -0.16638839
000090 69 90 3c 3e 00 cb 3d 3c 00 16 a2 be cf ce 8b 3e
       0.18414463 0.0115840435 -0.3165741 0.2730622
0000a0 6f fa d6 bd d2 7e 4a 3e ed fa 99 be 79 4b 99 3e
       -0.10496985 0.1977494 -0.30074254 0.29940394
0000b0 a7 35 86 be 72 24 19 3e 61 db ac 3d 50 bc ab 3e
       -0.26212808 0.14955309 0.08440281 0.3354211
0000c0 5c e5 80 be d7 71 93 3d 67 94 6b 3d e2 50 f5 3d
       -0.25174987 0.071994476 0.057514574 0.11978318
0000d0 5b 36 6a bd 97 ca 9d be 83 1b 63 3e d3 73 17 3e
       -0.057180744 -0.30818626 0.22178464 0.14790277
0000e0 d8 de 6b be 9c ba 84 3e 0b 17 0b be a9 8a 2b 3d
       -0.23034227 0.25923622 -0.13583009 0.041880284
0000f0 6b 74 a2 bd 0a eb 37 3c 3c 49 77 3d 3f d5 23 be
       -0.07932361 0.011225471 0.060372576 -0.15999316

context_encoder.encoder.0.mlp1.conv.bias f4 [8]
000000 a4 df 9b 38 4c 8c 40 b8 e0 46 05 37 b2 51 64 3d
       7.432632e-05 -4.590703e-05 7.94392e-06 0.055741973
000010 fe e9 0c 37 de da a7 bc d4 f3 a5 3d d0 82 26 b8
       8.399131e-06 -0.020490106 0.08103147 -3.9699313e-05

context_encoder.encoder.0.mlp1.batch_norm.weight f4 [8]
000000 44 a1 7c 3f 44 cb 7e 3f dc 32 7f 3f 64 09 7f 3f
       0.9868357 0.9952891 0.9968698 0.99623704
000010 4a aa 7c 3f 31 41 80 3f 56 b1 80 3f 53 ef 7e 3f
       0.9869734 1.0019895 1.0054119 0.9958393

context_encoder.encoder.0.mlp1.batch_norm.bias f4 [8]
000000 ed 73 20 3b b9 25 d5 bb 8d 53 da b9 d8 37 b9 3b
       0.002448316 -0.006504741 -0.0004164245 0.005652409
000010 f2 ca 65 bc e1 9e 23 3c a8 4d a3 3c 1b 92 8e bb
       -0.014025437 0.00998661 0.01993449 -0.004350913

context_encoder.encoder.0.mlp1.batch_norm.running_mean f4 [8]
000000 c9 0b 6c 3d e8 5b 49 3d d7 6a 8d 3d 66 65 8e 3e
       0.057628427 0.049159914 0.06905144 0.27811736
000010 59 d2 53 bc 2f 18 e4 3d a7 6d ab 3d 71 21 aa bd
       -0.012928569 0.11137425 0.08370524 -0.0830716

context_encoder.encoder.0.mlp1.batch_norm.running_var f4 [8]
000000 9c be 21 3e 4a 4c 1e 3c da 75 44 3e e5 15 9c 3c
       0.15795368 0.009661743 0.19185582 0.019053409
000010 4e b0 27 3e 7a 1e c4 3d 51 a8 da 3a 34 a3 1e 3b
       0.16375849 0.095761254 0.0016682242 0.0024206163

context_encoder.encoder.0.lse1.mlp.conv.weight f4 [8, 10, 1, 1]
000000 e8 90 cb bd 6b b5 a1 bc 42 11 16 be c2 ef 9a 3e
       -0.09939748 -0.019739827 -0.14655021 0.30261046
000010 80 36 0c 3d 31 6b 90 be ec 30 94 be 10 ea f5 3d
       0.034231663 -0.2820678 -0.28943574 0.120075345
000020 90 04 8a 3e 89 95 89 be c3 1b 18 be b1 99 54 be
       0.26956606 -0.268719 -0.1485434 -0.20761754
000030 e3 ed 14 be 8c 50 aa 3e ed 65 96 be 78 6c 8f 3e
       -0.14543872 0.33264577 -0.29374638 0.28012443
000040 7c 38 19 be a5 3d b3 3d d7 bf db b9 99 67 85 be
       -0.14962953 0.08751992 -0.00041913867 -0.260556
000050 3e 1f 65 be 63 3a b4 3d 6b 05 90 bb 5c de 98 3e
       -0.22375199 0.08800199 -0.004395177 0.29857147
000060 e3 1d 5d be 20 fd 45 3b 8d 67 c7 bc ae f4 56 bd
       -0.21593432 0.0030210689 -0.024341369 -0.05247944
000070 0e de 4b be 5a 60 13 be e7 ae 92 be a8 95 87 bd
       -0.19908926 -0.14392224 -0.28649065 -0.066203415
000080 2d b8 e0 bd bd 71 0f 3e f9 0e e1 3d f6 6a c8 3c
       -0.10972629 0.14008231 0.10989184 0.024465065
000090 34 52 6f bd c5 3d 07 be b6 b0 8b 3e 9a c6 96 bd
       -0.058428004 -0.13207157 0.27283257 -0.07362099
0000a0 ea d8 47 3e 28 43 7d 3e 5c 3b 95 3e f4 f6 8f 3c
       0.1951634 0.2473265 0.2914685 0.017573811
0000b0 34 fc 97 be 9c 19 25 be 54 d1 51 bd be b5 5c 3e
       -0.29684603 -0.1612305 -0.05122502 0.21553704
0000c0 fd 65 40 3e 2f 5e c0 bd 24 ea 85 be 1f b9 20 3d
       0.18788905 -0.09392964 -0.26155198 0.039239045
0000d0 e2 99 18 3e f4 3f 47 3e 8d 6c 92 3e 59 3e 95 bd
       0.14902452 0.1945799 0.28598443 -0.072872825
0000e0 d8 d5 a5 3e 86 05 73 bd 4f 00 f9 3c 76 84 a3 3e
       0.32389712 -0.05933144 0.030395655 0.31936997
0000f0 cf fb 8e 3e 79 d5 98 3e f0 69 5c be 49 17 5e be
       0.2792649 0.29850367 -0.21524787 -0.2168857
000100 2b 66 a4 be c5 ba 0e 3e 2c 4e 8a 3e 3e 40 81 be
       -0.32109198 0.13938434 0.27012765 -0.25244325
000110 a6 fc 56 3e 9e 1b 89 be d7 db 85 3d f0 66 ec bd
       0.20994815 -0.26778883 0.06536072 -0.11543071
000120 0f 37 bd 3c b5 a8 59 3e 76 d2 4a 3e 97 84 99 3e
       0.023097543 0.21255763 0.19806847 0.2998397
000130 e2 54 8d 3e 3b 25 26 3e b3 a8 f7 bd 7a b0 33 bc
       0.27603823 0.1622514 -0.12092724 -0.010967368

context_encoder.encoder.0.lse1.mlp.conv.bias f4 [8]
000000 d7 4c 2d 3c 76 83 1e 3c ac 54 7e bb d1 a9 1d bb
       0.010577402 0.009674897 -0.0038807793 -0.0024057517
000010 ad bd 93 b9 aa 9b a5 bc b8 2d de b8 3c 07 10 39
       -0.00028179344 -0.020215828 -0.00010594301 0.00013735605

context_encoder.encoder.0.lse1.mlp.batch_norm.weight f4 [8]
000000 a5 ca 7d 3f 75 e2 7f 3f de b3 7b 3f c7 bd 7e 3f
       0.99137336 0.9995492 0.9832133 0.9950833
000010 84 51 80 3f 7d fc 7e 3f b1 a4 80 3f 90 c5 7f 3f
       1.0024877 0.99604017 1.005026 0.9991083

context_encoder.encoder.0.lse1.mlp.batch_norm.bias f4 [8]
000000 0e 89 94 bb 44 fe 99 3c 27 1f 30 bc 34 a9 26 3b
       -0.0045329398 0.018798001 -0.010749615 0.0025430443
000010 a7 8b f0 3b af cc 4a 3b 51 aa 02 3b 4e 34 4b 3c
       0.0073408666 0.0030944755 0.0019937942 0.012402607

context_encoder.encoder.0.lse1.mlp.batch_norm.running_mean f4 [8]
000000 55 1e 10 42 b1 10 91 41 e1 e2 d1 c2 c7 f1 05 42
       36.02962 18.13315 -104.94312 33.48611
000010 93 42 1e 3f 18 bc f4 c0 05 3a 6b 3f 58 9e a6 42
       0.61820334 -7.6479607 0.91885406 83.309265

context_encoder.encoder.0.lse1.mlp.batch_norm.running_var f4 [8]
000000 de 90 5c 44 49 8a 0d 44 9f 97 80 44 ce e8 b2 44
       882.26355 566.1607 1028.7382 1431.2751
000010 29 4a a5 43 da 99 a6 45 ae 1d 95 45 38 aa fb 44
       330.57938 5331.2314 4771.71 2013.3193

context_encoder.encoder.0.pool1.score_fn.0.weight f4 [16, 16]
000000 31 af c9 bc a9 9e 12 bd d9 ae 0a 3c 87 e1 53 bc
       -0.02461967 -0.03579584 0.0084645385 -0.012932188
000010 ab f1 48 3c a9 dd 9e bc 88 32 23 3d aa fe 79 bb
       0.012264649 -0.019392805 0.039843112 -0.0038146176
000020 29 e1 44 bc de 07 ec bb 9d c9 ce 3b 14 8e 80 ba
       -0.012016573 -0.0072030863 0.0063106553 -0.0009807968
000030 da ff 64 bb 53 40 30 bb a7 57 f8 3a 45 28 35 bc
       -0.0034942538 -0.002689381 0.0018947021 -0.011056964
000040 3a 27 6e 3d 95 65 03 3e 41 8a 52 bd 92 f6 2e bc
       0.058142878 0.12831719 -0.05140138 -0.010678904
000050 5f 9d ab bd fa d8 81 3d 21 d4 27 3c a8 4d 68 3c
       -0.083796255 0.06340213 0.010243447 0.014178671
000060 b9 3b 91 3c 27 55 0d 3d db a8 2d 3b 86 65 05 bd
       0.017728673 0.034505036 0.002649835 -0.032567523
000070 1e 7b 27 bd c6 d4 c3 bc 83 3a a8 bb 3d 44 09 bc
       -0.040888898 -0.02390517 -0.0051339283 -0.008378086
000080 f8 9d 3d bc 54 2b 96 3c e3 92 08 bc 64 19 8a bc
       -0.011573307 0.018331207 -0.008335802 -0.01685781
000090 1a 38 2f 3d 5a 6d 44 3c c5 a0 a2 3d 37 e9 60 bd
       0.042778112 0.011988962 0.079408206 -0.05490991
0000a0 ac 0d cd bb 1d 32 99 bd a2 03 e3 bc e4 30 31 bc
       -0.0062577333 -0.074802615 -0.027711693 -0.010814879
0000b0 ec ba bd bb 1f 49 07 bd 03 c5 11 3d da 76 e1 bc
       -0.005790105 -0.033028718 0.035588276 -0.027522493
0000c0 e5 ec 92 3c b8 7b 13 3c 58 c8 f3 3b 50 71 15 bd
       0.017935226 0.009001665 0.0074396543 -0.036485016
0000d0 03 a9 c9 38 a1 d2 fb bb 1c cd 6c 3c f9 9e 8c 3c
       9.615908e-05 -0.007685021 0.014453199 0.017165648
0000e0 60 98 8a bc 71 a0 01 3c 46 d0 39 bd 25 1f 68 bd
       -0.016918361 0.007911787 -0.04536464 -0.056670327
0000f0 8a 39 31 bc 5e 2a 47 3c 46 90 a5 bc b4 e3 07 3b
       -0.010816941 0.012156097 -0.020210396 0.0020735087
000100 a4 eb a2 bb fa b3 26 bd 06 15 b5 bc b7 23 ef 3c
       -0.004971938 -0.040698983 -0.022104751 0.029191835
000110 d6 cd 73 bc d8 1e ee bb 6d 43 0d 3c 49 92 00 3d
       -0.014880618 -0.0072668605 0.008622033 0.03138951
000120 54 25 c5 b9 1b ff bf b9 9f 6a 2a bd d7 0b ba 3a
       -0.0003760258 -0.00036620427 -0.041605588 0.0014194202
000130 c1 c4 91 bc 35 8a 85 3a bd 5b 69 3c 19 08 a1 bc
       -0.017794015 0.0010188284 0.0142430635 -0.019657182
000140 01 ac 4e 3d 0f 18 94 3d e8 4c c7 3c dc e6 18 3c
       0.050457004 0.07231151 0.024328664 0.009332385
000150 3d 43 90 bc 27 cf 29 3c f7 c1 cf 3b 92 a5 21 bb
       -0.017610187 0.01036433 0.006340261 -0.0024665338
000160 9c 78 ff 3b 4b ae b0 3d ab 57 fa 39 f7 67 07 3c
       0.00779636 0.08626994 0.00047749034 0.008264533
000170 ed c6 0a 3c 3c 48 08 bb d1 7a aa 3c 6e 2d 4c 3c
       0.008470279 -0.0020795008 0.020810517 0.012462003
000180 1d 41 3e bc f6 ee 57 3d 28 ea 84 bd 52 95 8a bd
       -0.011612204 0.052718125 -0.06489974 -0.06766762
000190 d1 c5 4f 3d 21 68 2e bd bf 42 c5 3d 2c bb e5 bd
       0.05072576 -0.042579774 0.096318714 -0.11217341
0001a0 f0 c1 46 bd 9b a2 b2 bc cc 1e ee bc 87 b5 36 bd
       -0.048524797 -0.021806052 -0.02906742 -0.04460671
0001b0 bd aa 20 bd b8 55 0c 3d 7d 88 bd bc 9c 0e 8e bd
       -0.03922533 0.034261435 -0.023136372 -0.0693638
0001c0 b4 82 36 bd aa c3 72 bd f0 ec fe bc 33 77 1a bb
       -0.044558242 -0.05926863 -0.03111884 -0.0023569583
0001d0 94 93 2d bc 2a 82 86 bb bf c0 b6 bd ca 90 f8 bc
       -0.010594267 -0.0041048722 -0.08923482 -0.030342478
0001e0 24 bd 22 bd df b1 04 3d c3 9a 38 bb 71 68 41 bd
       -0.03973116 0.032396194 -0.0028168417 -0.047218744
0001f0 a1 c6 11 3d 16 7d 67 3b 8d 34 07 bd 7c 9f 07 3b
       0.035589818 0.003532236 -0.0330091 0.0020694425
000200 46 05 52 bd 96 04 ab 3c d8 fb e3 ba 6b fd 71 bc
       -0.05127456 0.02087621 -0.0017393781 -0.014769892
000210 9b 62 f6 ba 14 12 df ba f7 90 58 bd 66 6b 09 3e
       -0.0018797697 -0.0017018938 -0.052872624 0.13419876
000220 b0 5d a9 3d ce b6 a8 bc fd b0 fb bb 93 4f a1 bd
       0.082698226 -0.02059498 -0.0076810108 -0.07876506
000230 3c 51 23 3d 4f 13 90 bc 12 c9 2c bb 28 6a ff bb
       0.039872393 -0.017587332 -0.0026364964 -0.0077946372
000240 53 de 56 3b 32 1c 74 3b fe 02 b2 3c 3f 33 45 bd
       0.0032786324 0.003724825 0.021729942 -0.048144575
000250 2a e9 05 bc 18 9f 59 bc 73 e2 d6 bc 61 31 31 bb
       -0.008173266 -0.01328256 -0.026231026 -0.0027037489
000260 bf 0b 5c 3d 43 26 dc 3b f1 b5 bf bc fc 6e 5b 3b
       0.05372214 0.0067184283 -0.023402186 0.00334829
000270 c0 f3 8e bc 87 00 3d 3b d8 a1 98 bb d1 d2 b7 bc
       -0.017450213 0.0028839426 -0.004657965 -0.022439392
000280 cf 80 3e 3d 3e f7 42 3d 09 64 43 3c 29 de 4f bc
       0.04650956 0.04759907 0.011925706 -0.012687244
000290 f7 13 9b 3d c6 54 5a bd 24 46 9d 3d 4e 01 ec 3c
       0.07572167 -0.053303503 0.07679394 0.028809216
0002a0 d0 e2 cd 3b a7 e8 b8 bd 8d d6 7b 3d 2d a8 40 bd
       0.0062831417 -0.0902875 0.06148391 -0.047035385
0002b0 66 04 71 3d 67 f8 cf bc 58 64 6a bc e7 4f 86 3b
       0.058842085 -0.025387002 -0.01430615 0.0040988806
0002c0 f9 3f 19 3c f7 39 77 3c cf 09 f9 38 c5 39 13 3d
       0.009353631 0.0150895035 0.00011875072 0.035943765
0002d0 ac 1f 88 3b c9 ea d2 3b 07 9c 9a bd 77 d0 d5 3c
       0.004154166 0.00643668 -0.07549291 0.02610038
0002e0 5e 6d ac bd c2 64 55 bd f3 79 5f bb 9f 46 87 3c
       -0.08419298 -0.052098043 -0.0034099787 0.016513167
0002f0 85 55 96 ba e1 66 36 ba 6b 32 41 bb 10 ea 84 bb
       -0.0011469579 -0.0006958079 -0.0029479514 -0.0040562227
000300 e2 44 e3 ba c2 b8 13 bb 8e 0c a5 bb 50 fd 43 bc
       -0.0017339254 -0.0022540544 -0.005036897 -0.01196225
000310 51 6d 79 b9 35 c8 95 3c 99 b6 d8 3b 78 4a b2 bb
       -0.00023787214 0.018283943 0.006613564 -0.0054410063
000320 4a e9 86 bb dc b0 cf bb f7 af a5 3c 84 40 f2 ba
       -0.0041171657 -0.006338222 0.020225508 -0.0018482362
000330 aa 9d aa 3c 24 5f 6b 3b e0 0e c0 ba 43 3e 30 bc
       0.020827133 0.0035914863 -0.0014652871 -0.010757032
000340 6b 6e 65 ba 55 77 c7 3c 46 a9 ce 39 74 c6 8f 3a
       -0.00087521103 0.024348894 0.000394175 0.0010969178
000350 46 27 52 bc ad 35 6a bb 97 91 7a 3b df 3f a6 3c
       -0.012826746 -0.003573756 0.003823375 0.020294128
000360 31 69 c5 b6 78 1f a7 bb 79 20 bd 3c 02 80 e7 3a
       -5.8833034e-06 -0.005100187 0.023086773 0.0017662051
000370 ee 73 18 3d fc 16 97 bb 49 33 74 39 91 47 28 3b
       0.037219934 -0.0046108942 0.00023288759 0.0025677423
000380 18 0a a0 39 06 62 90 ba e0 ce d5 ba 5b fd 92 3c
       0.000305251 -0.0011015541 -0.0016312264 0.017943075
000390 d8 67 d1 3a 4b da 1b 3b d9 fe 3a 3d d6 f6 e3 bb
       0.0015976382 0.0023781236 0.045653198 -0.0069569154
0003a0 d8 18 09 bb 59 84 a1 bb 69 c1 09 bb be e2 06 3b
       -0.002091935 -0.004929107 -0.0021019822 0.0020581926
0003b0 37 d7 95 3a cf 55 2f 3b aa 96 8f 3d 8a 95 94 ba
       0.0011431937 0.0026754027 0.07011159 -0.001133607
0003c0 99 d1 4e 3b a5 9d 0e 3d 6b 6d 16 3b 17 a1 31 3c
       0.0031558035 0.03481831 0.0022953402 0.0108416295
0003d0 6c e5 cf 39 50 92 d9 3b 85 57 7f bb 9b 3d da bc
       0.0003965305 0.0066397563 -0.0038962078 -0.026640704
0003e0 64 e9 9d 3c cc 85 ca 3b 99 36 b3 b9 fb fc ee 3c
       0.019276328 0.0061805006 -0.0003418222 0.029173365
0003f0 e9 c5 01 3c 2e ba 45 bc 12 47 7a 3b a0 39 5b 3b
       0.007920721 -0.0120683145 0.0038189334 0.0033451095

context_encoder.encoder.0.pool1.score_fn.0.bias f4 [16]
000000 d8 49 56 b3 47 50 1e 3a 03 d4 21 35 3d c4 fb ba
       -4.989292e-08 0.0006039184 6.028569e-07 -0.0019208264
000010 b5 c0 e8 36 9f fc 2d 39 ff 95 88 ba 62 4d 29 b4
       6.936573e-06 0.00016592674 -0.0010420679 -1.5767503e-07
000020 12 c8 66 b3 13 46 0d b5 5c c8 b7 b1 ec f4 e5 bb
       -5.373301e-08 -5.2628565e-07 -5.348779e-09 -0.0070177224
000030 ca 08 89 33 5f 32 3a bb 10 2d 1d bc ba 6a 87 b4
       6.3811584e-08 -0.0028411371 -0.009593263 -2.5223363e-07

context_encoder.encoder.0.pool1.mlp.conv.weight f4 [8, 16, 1, 1]
000000 6f 0e 37 bd e8 f0 81 3d d5 0b 29 be a0 79 10 3e
       -0.0446915 0.06344777 -0.1650842 0.14108896
000010 eb 31 25 be 20 b2 89 bd 97 5b be bd b1 8b 39 3d
       -0.16132323 -0.06723428 -0.09294813 0.045299236
000020 7c 3f 54 be 4f 80 b5 3d 4b 2c 24 3e e1 0a 9f bd
       -0.20727342 0.088623635 0.16032521 -0.07765747
000030 3a 7e aa bd 87 4d 36 be 9c 00 35 3e 02 38 45 3e
       -0.08324857 -0.17803012 0.17676014 0.19259647
000040 96 30 14 3e f3 4d 18 be 57 a3 af 3d ac 28 77 be
       0.14471659 -0.14873485 0.085760765 -0.24136609
000050 9a 29 34 be ed 38 1e 3e 4e f3 b9 3d 94 a2 2b be
       -0.17593995 0.15451403 0.0907961 -0.16761237
000060 5c 61 e1 bc 73 f7 89 3d cb 20 75 be 6d 99 28 be
       -0.027512245 0.0673665 -0.23938291 -0.16464777
000070 da f1 f8 bd e7 c2 06 bd 4a 14 21 be 69 a9 8c 3d
       -0.121555045 -0.032900717 -0.15730396 0.0686825
000080 25 ca 1a be 04 5f ca bd 29 23 4f 3d 66 e4 5a 3e
       -0.15116175 -0.09881404 0.05057064 0.2137619
000090 25 01 b7 bd df a3 10 3e da 1c 43 3e 53 c5 65 3e
       -0.08935765 0.14125012 0.19053975 0.22438554
0000a0 c0 7e 65 3d 5a 94 71 be fb 8c f9 3d 9b 0c 08 3e
       0.05602908 -0.23591748 0.12185093 0.13286059
0000b0 0a 51 cb bd 67 e8 5b be 78 39 68 be d8 f4 05 3c
       -0.09927566 -0.21475373 -0.22678173 0.008176051
0000c0 4a e6 89 3d 31 8e 3a be 9c 6b 08 be 48 d0 97 3c
       0.06733377 -0.18218304 -0.133223 0.018531933
0000d0 bd fa 7a 3d 73 4f 82 be d4 15 62 3c 6f c9 40 bc
       0.06127428 -0.2545124 0.01379915 -0.0117667755
0000e0 b3 26 88 3d 14 74 dd 3a 88 a9 57 3d 1f e1 b3 bc
       0.06648006 0.0016895556 0.052651912 -0.021957932
0000f0 af 5a 20 be 30 c5 35 be 8d 88 f7 bd 1b ac 17 3e
       -0.15659593 -0.17751002 -0.12086592 0.14811747
000100 11 52 b3 3d 48 2c 8d 3d 98 6d 74 be 71 45 38 3e
       0.08755887 0.068932116 -0.23869932 0.1799524
000110 be 1f 03 bd 8d bb 7c be 58 14 18 be 15 ad 20 be
       -0.032012694 -0.2468092 -0.1485151 -0.15691026
000120 65 9f af 3d 09 a9 0a bd ac bf bd bb 08 7c 99 3d
       0.08575324 -0.03385261 -0.0057906713 0.0749436
000130 6a 5c ad 3c c3 f7 4c be 31 73 50 3e 25 bd 0b be
       0.02116223 -0.20016389 0.20356442 -0.13646372
000140 24 4b 08 bd ca cc 2d be a7 2c 49 bd 08 6a 43 be
       -0.033274785 -0.16972652 -0.04911485 -0.19083416
000150 3d fc 94 bc ba d2 f9 3d 6a 6d 60 3b 1b 18 2e be
       -0.018186683 0.12198396 0.0034244903 -0.17001383
000160 22 f8 d7 bd 01 36 40 be cc 6a 21 3c 3f f7 5d 3d
       -0.105453745 -0.18770601 0.0098521225 0.05419087
000170 d5 b5 ae bd e1 4c 26 3d 40 d1 df bd 99 8b 3e 3e
       -0.085307755 0.04060066 -0.10928583 0.1860794
000180 96 44 02 3e 31 80 15 3e d0 27 80 3c 68 aa 51 be
       0.12721476 0.14599682 0.015643984 -0.20475161
000190 1b 7b ee bb aa b5 20 3e 06 8c 32 be de 11 34 be
       -0.007277859 0.156943 -0.17436227 -0.17584941
0001a0 42 d0 03 3b 66 85 e3 3b 91 82 40 bc b0 c3 20 be
       0.0020113145 0.0069433926 -0.011749879 -0.15699649
0001b0 0d 6e b8 bc c7 50 15 be 3f d1 0d 3e 1f 1f 1b 3e
       -0.022513414 -0.14581595 0.13849352 0.1514859
0001c0 5a 50 c2 3d e8 1f e8 bd 68 73 c4 3d 7f a4 24 bd
       0.09487982 -0.11334211 0.095923245 -0.04019594
0001d0 83 45 13 bd 52 24 c0 3d 47 78 ec 3c 4c 9a a1 bc
       -0.035954963 0.093819275 0.028865946 -0.019726895
0001e0 84 03 04 3d 0d 08 1f 3e d1 28 61 3e df 8d 01 3e
       0.032229915 0.15530415 0.21988226 0.12651776
0001f0 06 3c de bd ad 0a 4d be 45 5c 79 3e 1e fb 7c 3d
       -0.10851292 -0.20023604 0.24351604 0.06176292

context_encoder.encoder.0.pool1.mlp.conv.bias f4 [8]
000000 49 24 b2 3b af bf bd 3a 35 b9 df 3c 24 0a 82 b8
       0.0054364544 0.0014476682 0.027309993 -6.200772e-05
000010 ef 8d b2 b6 81 a6 2c b8 6a 3a 10 ba c0 96 ad ba
       -5.3213366e-06 -4.1163064e-05 -0.00055018684 -0.001324378

context_encoder.encoder.0.pool1.mlp.batch_norm.weight f4 [8]
000000 b4 b5 80 3f 7d 15 80 3f 6c 1e 80 3f f1 d5 7a 3f
       1.0055451 1.0006558 1.0009284 0.979827
000010 9a 63 79 3f 97 d2 80 3f 06 c7 7b 3f 8a e9 7d 3f
       0.97417605 1.0064267 0.9835056 0.9918448

context_encoder.encoder.0.pool1.mlp.batch_norm.bias f4 [8]
000000 1d ce 36 3c cf 3b fa ba 53 a2 ce 3b 6f 09 b8 ba
       0.01115754 -0.0019091311 0.0063059716 -0.0014040897
000010 03 92 84 bc d7 64 2e 3c fb d6 2e bb db 30 91 3b
       -0.016182905 0.010644159 -0.0026678431 0.004430873

context_encoder.encoder.0.pool1.mlp.batch_norm.running_mean f4 [8]
000000 77 dc 90 bd ed 95 69 be b2 29 4d 3e df dc 16 be
       -0.070733 -0.22811098 0.20035437 -0.14732693
000010 b9 a7 9c be f4 a4 6b be cc 6d 8e be cf 05 54 3e
       -0.30596712 -0.23012143 -0.27818143 0.20705341

context_encoder.encoder.0.pool1.mlp.batch_norm.running_var f4 [8]
000000 ce 45 df 3c 59 3c fa 3c 74 ef 95 3d 37 75 9f 3c
       0.027254965 0.030546354 0.07321063 0.019465072
000010 c6 62 be 3d 96 ee 0a 3e 57 a9 12 3d 61 d7 b1 3d
       0.09296183 0.13567576 0.035806026 0.086836584

context_encoder.encoder.0.lse2.mlp.conv.weight f4 [8, 8, 1, 1]
000000 28 ca f8 bd f0 80 8e 3e de 0c a0 3e 4a db d0 3d
       -0.12147933 0.27832747 0.31259817 0.10198076
000010 96 26 26 bd 36 d3 48 be 54 e8 23 be 0a 30 98 be
       -0.040564142 -0.1961182 -0.16006595 -0.2972415
000020 fe e0 8d 3e cf fd fd bd 5f 4b c3 bd 0b 02 15 be
       0.27710718 -0.12401926 -0.0953586 -0.1455156
000030 9f 38 b6 3c d4 72 f7 3d 40 3a 93 3e a1 21 f0 3d
       0.022243796 0.120824486 0.2875538 0.11725164
000040 a4 4d e8 bd da 55 63 3e 6a e7 fd bd 41 9a 84 3e
       -0.11342934 0.22200719 -0.12397654 0.25898936
000050 00 48 97 3e d5 be 4e be d0 53 23 3d 7b 0e 0e 3d
       0.2954712 -0.20189984 0.03987485 0.03468178
000060 86 ea 9f 3e 22 ff 24 be b2 34 27 be 59 1c 79 3e
       0.31233615 -0.1611295 -0.16328695 0.2432722
000070 91 89 8f be d5 9e a6 3e 17 b5 5d be 1d 9c 46 3e
       -0.28034642 0.32543054 -0.21651112 0.1939549
000080 a3 94 55 3e f0 5a a6 3e 9d 92 45 be a2 c3 ae be
       0.20857482 0.32491255 -0.1929421 -0.3413363
000090 af d9 44 bd 20 54 07 3c 7f db 0e be 2d c5 79 3e
       -0.04805916 0.008259803 -0.13950919 0.24391623
0000a0 00 80 fa 3d b4 bd 88 be 9d 94 4c 3e 36 45 9c 3d
       0.12231445 -0.26707232 0.19978566 0.076303884
0000b0 58 c3 d5 bd eb 8e d8 bd 55 c1 8a be 95 f0 a2 bd
       -0.104376495 -0.105741344 -0.27100626 -0.07956044
0000c0 b2 c9 f5 3d be d0 44 3d b5 43 8f 3e 35 b9 65 3e
       0.12001361 0.048050635 0.27981344 0.22433932
0000d0 71 de a4 be 9a 31 35 be 09 6e 9c 3e 21 c9 85 be
       -0.3220096 -0.17694703 0.305527 -0.26130012
0000e0 62 b8 62 bd 32 f0 31 3e c2 fe 7f 3e 5b 0d 57 be
       -0.055351622 0.17376783 0.24999526 -0.21001188
0000f0 dc b2 89 3e 8e e2 97 3e ba 48 73 be a9 9d 9d 3e
       0.2689427 0.29665035 -0.23758212 0.30784348

context_encoder.encoder.0.lse2.mlp.conv.bias f4 [8]
000000 d8 85 3e 3d 16 6d a2 3d b6 cd ab 3a 4e 39 76 3c
       0.046514362 0.07930963 0.0013107571 0.015028311
000010 d6 7c e7 bb f8 f8 11 bd fa f7 be bd e1 d5 11 bb
       -0.007064442 -0.035637826 -0.093246415 -0.0022252726

context_encoder.encoder.0.lse2.mlp.batch_norm.weight f4 [8]
000000 95 6a 81 3f 48 4d 81 3f 3a 4d 7c 3f 89 26 7c 3f
       1.0110651 1.0101709 0.9855534 0.984963
000010 bc 8e 7c 3f a8 31 80 3f b6 0a 81 3f de c5 7a 3f
       0.98655295 1.0015154 1.0081394 0.9795817

context_encoder.encoder.0.lse2.mlp.batch_norm.bias f4 [8]
000000 94 f5 f3 3a 77 24 19 3c ed b6 7b bb 91 6b 89 bc
       0.0018612617 0.009347073 -0.0038408593 -0.016774924
000010 2d d8 2e bc b1 3a 84 bb fd f9 23 b9 43 6e 4d bc
       -0.0106716575 -0.004035317 -0.00015638019 -0.0125384955

context_encoder.encoder.0.lse2.mlp.batch_norm.running_mean f4 [8]
000000 6c 3b 71 ba 5c 19 72 3e 04 25 14 3e ef e4 d5 3d
       -0.0009202275 0.23642486 0.14467245 0.10444056
000010 8e 0e 94 3c e7 cc 41 be 12 4b 38 bd de 39 89 3e
       0.018073346 -0.1892582 -0.044993468 0.26801962

context_encoder.encoder.0.lse2.mlp.batch_norm.running_var f4 [8]
000000 13 52 19 3e 2c 32 0c 3e 58 8b f4 3d 5b 15 9a 3e
       0.14972715 0.13691014 0.1194064 0.30094418
000010 e8 2a e5 3d ac 74 9a 3d a1 3e 0f 3e 82 62 a6 3d
       0.11189824 0.07541785 0.13988735 0.081242576

context_encoder.encoder.0.pool2.score_fn.0.weight f4 [16, 16]
000000 98 2f 96 bd 4d a7 91 bd c0 17 b8 3d 83 e1 86 bd
       -0.073332965 -0.07111988 0.08988905 -0.06585982
000010 67 d7 9e 3b f7 3b 08 3e 31 64 b7 bd b3 08 b4 3c
       0.0048474553 0.13304125 -0.08954657 0.021976804
000020 83 2c 08 3d 3a 75 3d 3c 39 6d 08 3d 7a d8 0a 3c
       0.033245575 0.0115635935 0.033307288 0.008474464
000030 ba bc d2 bd 20 fb 4e 3d a5 5e c2 bd 43 e7 2c 3d
       -0.10289903 0.05053246 -0.09490708 0.042212736
000040 86 f1 d4 bd 92 c3 2d bd c3 9b c3 3d 99 ad 3c 3d
       -0.103976294 -0.04242284 0.095511936 0.046063993
000050 a1 2b bc 3c c0 7e 2f be 41 6e fe 3c 15 c6 91 bd
       0.022970023 -0.17138195 0.031058433 -0.07117859
000060 a7 7d 1b 3d 4d f5 ec 3d 6e 61 8e bc 32 c4 67 bd
       0.03796163 0.11570225 -0.017380442 -0.05658359
000070 e5 13 b8 bd 52 b9 be bc c4 55 ac ba d7 38 bd 3d
       -0.089881696 -0.023281727 -0.0013148119 0.09239357
000080 f9 26 e7 3d e2 f3 91 3d bd 1e a3 bd 07 a0 d4 3d
       0.1128673 0.07126595 -0.07964847 0.10382085
000090 d9 b3 00 bd bb 24 9d 3d c8 38 e2 3d da e7 df 3b
       -0.031421516 0.076730214 0.110459864 0.006833059
0000a0 80 30 6f bd aa 71 7f bd 91 3d 44 3c fb dd 2b bc
       -0.058395863 -0.062364258 0.011977569 -0.010489936
0000b0 b6 7b 7a 3b b2 88 95 3d 12 55 9a 3c 0f 6c 9e 3c
       0.003822071 0.07301463 0.018839393 0.019338636
0000c0 c7 d5 fb 3c b6 b3 73 3d bd 40 08 3d 31 18 8a bd
       0.030741585 0.059497558 0.033264864 -0.067428954
0000d0 ee f1 f4 bb 66 72 da bd 88 0e 54 3d c6 e5 40 bc
       -0.0074751293 -0.10666351 0.05177167 -0.011773532
0000e0 93 2c 2d bd 7d 3a a5 3c 31 b8 17 3d 24 8a 0a bd
       -0.042278837 0.020169491 0.037040893 -0.033823147
0000f0 e7 9c 0d bb 27 4a 58 bc d2 c4 87 bd 71 9f bc 3c
       -0.0021608414 -0.013201273 -0.06629337 0.023025246
000100 cd b0 3d 3c ba e4 0b bc a2 d4 ac 3c d4 8a f2 3c
       0.011577797 -0.008538419 0.021097485 0.029607214
000110 a9 45 3d bd d0 6f f7 3c c8 7c 36 bd 85 a1 87 bc
       -0.04620901 0.030204684 -0.044552594 -0.01655651
000120 c2 91 45 3d 82 ac a3 bd b2 1b 58 bc c9 ee a1 3b
       0.04823471 -0.07991888 -0.013190197 0.0049417955
000130 d2 f0 ae bc 12 2d a5 3c 24 93 66 bb d9 93 bc 3d
       -0.021355066 0.020163093 -0.0035182917 0.09207887
000140 3d 27 d5 bc 5c 81 17 be 82 4b f9 bb 03 52 88 bd
       -0.026019687 -0.1479544 -0.007607878 -0.066562675
000150 27 e8 96 bc 3b f3 83 bd 90 85 df 3c 04 fe 01 3e
       -0.018421246 -0.06442877 0.027285367 0.12694556
000160 a2 1e 52 3b 3e cf e9 bd dc e0 c5 3c f5 20 23 3c
       0.0032061716 -0.114164814 0.024155073 0.009956588
000170 e6 cd 47 bb b4 4e 80 3b 77 a0 3c bc af a4 cc bd
       -0.0030487715 0.003915632 -0.011512867 -0.099923484
000180 5f 4c f4 3d 58 35 49 bd 40 64 d7 ba d9 3e d1 3d
       0.11928629 -0.04912314 -0.0016433075 0.10217065
000190 c2 a0 a5 3b 9f dc 34 bd 7b 7c 3d 3d cf 5b bd 3c
       0.005054564 -0.044155713 0.046261292 0.023115067
0001a0 f5 65 1f 3c 76 b2 42 3c 5d 9f ae 3d 07 01 12 bd
       0.009728898 0.011883369 0.0852649 -0.03564551
0001b0 d2 9f b4 3d 42 95 86 3d db 55 49 bb 9f 60 f4 bd
       0.08819546 0.065714374 -0.003072134 -0.119324915
0001c0 34 bb 3a 3b c2 8a 71 bd fa 99 a1 3d db ac 5a 3d
       0.002849293 -0.05897022 0.07890697 0.053387504
0001d0 31 f3 5d 3d 8f d9 34 bd 89 f5 ca 3c 43 16 c9 bd
       0.054187004 -0.044152793 0.024775283 -0.09818699
0001e0 02 ea 31 bd 48 da 11 bc bd f1 b3 b9 a5 1c d2 bc
       -0.043436058 -0.00890214 -0.0003432165 -0.025648424
0001f0 42 e6 14 3b eb 1d 98 3b 7c 07 ca 3c 7c 76 14 3d
       0.0022720252 0.0046422384 0.024661772 0.036245808
000200 9d 59 85 bc 1b 4e cf bb 21 eb 80 3c 8a 2f 49 3d
       -0.016278083 -0.0063264496 0.015737118 0.049117602
000210 cd 1b 22 bd 88 88 20 bc 60 c5 d9 3c b1 0e a3 bc
       -0.039577294 -0.009798177 0.026583374 -0.019904466
000220 c4 ff 42 bd 1b 3a 2a bb 1b e8 30 3d 42 e8 09 3d
       -0.0476072 -0.0025974575 0.043190103 0.033668764
000230 53 61 e2 bc 06 66 85 3d 11 a7 dc 3c 18 5d c0 bd
       -0.027634298 0.065136 0.026935132 -0.09392756
000240 05 bc c8 3a 78 15 2b 3c 1a 10 ec 3c de d6 78 bd
       0.0015314823 0.01044213 0.028816272 -0.06075179
000250 56 52 2a ba dc 3e 56 bd 62 cd 2c bc 42 48 c6 bc
       -0.00064972544 -0.05230604 -0.010547014 -0.024204377
000260 6b 55 46 3d a5 ca ea 3c 1e d3 8b bc 5e 18 0b 3c
       0.048421305 0.028661082 -0.017068442 0.008489696
000270 01 2c 81 3d a2 d6 13 3d 1b 05 14 bd ee 6f d2 bd
       0.06307221 0.03609336 -0.03613768 -0.10275255
000280 00 29 ac 3c 56 32 ae 3c 9f c2 0e bd 82 3b 26 3c
       0.021015644 0.021264236 -0.034853574 0.010146024
000290 2a 09 38 3d 88 25 2d bd 61 cc 20 bd 51 8f c1 bc
       0.044930615 -0.04227212 -0.03925741 -0.023627909
0002a0 4e 49 bc 3d 21 f0 70 3c 65 f2 fc 3a 91 53 7d 3c
       0.09193669 0.014705689 0.0019298313 0.015461818
0002b0 45 54 fe 3c 8f 4b 6f bd e3 32 90 ba b8 9f f8 3d
       0.031046042 -0.058421668 -0.0011001494 0.12139839
0002c0 db f9 89 3d fa 12 8a 3d 74 f8 6d 3b 83 50 7b 3b
       0.06737109 0.06741901 0.003631142 0.003834755
0002d0 f5 fd 29 3b 01 36 e3 3a 19 ee 88 3d 58 a1 a2 ba
       0.0025938724 0.001733482 0.066860385 -0.0012407703
0002e0 a0 e0 5d bd 78 ed cb 3b b4 75 31 bd f1 44 9c bd
       -0.054169297 0.006223377 -0.04332514 -0.07630337
0002f0 b6 7c 3a bd da cd d8 3b 7f ac 97 3c ec 02 83 3c
       -0.04552909 0.0066163363 0.01851487 0.015992604
000300 27 80 75 bc 82 5d 30 bd fb e2 01 bd 3b e0 0f 3d
       -0.014984167 -0.043057926 -0.031710606 0.035125952
000310 43 9b 0e 3d 4a 68 a8 3d 79 05 1f bd ee e0 83 bd
       0.034816038 0.082230166 -0.03882358 -0.06439386
000320 99 2f 30 bd b6 2c e1 bd e8 d7 1c 3d 87 07 e8 bd
       -0.043014143 -0.10994856 0.03829184 -0.11329561
000330 7b 55 2f 3d 3e 2e 9f bc 86 d2 cc bc 4e c8 dd 3d
       0.04280613 -0.01943123 -0.02500273 0.10829221
000340 bf 95 06 3d f2 c7 a6 bc 90 1f b7 3c ca d7 70 bc
       0.032857653 -0.020359013 0.022353917 -0.014699886
000350 f4 d6 c9 3b 5c f9 d8 3c 56 e4 6c 3c 76 95 ba bc
       0.0061596576 0.026486091 0.014458736 -0.022776347
000360 6f 03 96 3c 80 ed 99 bd b5 23 46 3d 0c e5 84 3d
       0.018312184 -0.07516003 0.048373897 0.06489
000370 82 00 82 3d 41 ec 03 3b 2c e8 8b 3c 52 16 be bd
       0.06347753 0.0020129832 0.017078482 -0.09281601
000380 f7 aa 3a bd ec e5 90 3d c4 05 d0 bd 72 62 36 b9
       -0.0455732 0.07075104 -0.1015735 -0.00017393546
000390 ba e7 4c 3c 07 59 cb 3d d8 41 06 3d 33 46 1a bd
       0.01250642 0.0992909 0.032777637 -0.037664603
0003a0 2c 8b b3 3d 05 61 43 bc 1e fb c3 3c 85 b0 26 bc
       0.08766779 -0.011924987 0.023923453 -0.0101739215
0003b0 43 b2 bd 3d e9 f9 58 bd ae 5a ee 3d 32 f8 24 3d
       0.09262516 -0.052972708 0.116383895 0.04027576
0003c0 20 b9 4a bc ec fb 03 bd 1a 6c d3 3d f3 87 f4 3d
       -0.012373239 -0.032222673 0.10323353 0.11939993
0003d0 0b 16 b6 3c 18 90 47 bd bd 8a c8 3d 45 37 0e 3a
       0.022227308 -0.048721403 0.09792087 0.0005425106
0003e0 74 ac 04 3e 8a 63 5a 3d f8 5c 07 bd c0 08 91 bc
       0.1295641 0.053317584 -0.033047646 -0.017704368
0003f0 38 5c 9c 3d ba 89 c1 bb 14 69 f1 3d 07 1f c7 3d
       0.07634777 -0.005906311 0.1178762 0.09722715

context_encoder.encoder.0.pool2.score_fn.0.bias f4 [16]
000000 05 0a 63 3c 00 9a 99 3c cd 02 92 34 47 ce 8c 35
       0.013857369 0.01875019 2.7196657e-07 1.0490847e-06
000010 5f 99 bd bc e2 79 a4 34 91 41 66 35 a7 61 13 b3
       -0.023144422 3.0636062e-07 8.577709e-07 -3.431492e-08
000020 13 d1 c8 b4 b2 23 44 35 69 d8 61 3c 4f d6 c7 3b
       -3.7405025e-07 7.3067633e-07 0.013784506 0.0060985456
000030 2c 27 ae bc f5 2e a3 3c 80 3c 88 b4 10 6c cc 34
       -0.021258913 0.019919852 -2.5375994e-07 3.8076587e-07

context_encoder.encoder.0.pool2.mlp.conv.weight f4 [16, 16, 1, 1]
000000 a9 cc 2b 3e b7 4a 3e be ca 3d b0 bb d2 c7 50 bb
       0.1677729 -0.18583189 -0.0053784596 -0.0031857383
000010 ec 88 fc bd 99 79 1c be 16 a0 f5 3d c9 49 80 be
       -0.12330803 -0.15280761 0.119934246 -0.25056294
000020 68 bc 04 be b9 cc 34 be 01 7b ef 3d b8 bf 03 be
       -0.12962496 -0.1765622 0.11693383 -0.12866104
000030 d1 88 ce 3d b4 d6 d9 bd 79 a3 aa bb af 99 74 3e
       0.100846894 -0.106366545 -0.0052074757 0.2388675
000040 ed d4 bf bd 72 39 46 be 88 72 e5 3d 70 07 78 3d
       -0.09366784 -0.19357851 0.11203486 0.060553968
000050 54 71 f3 bd 52 9c 26 3e 14 65 fa bd 70 72 46 3e
       -0.1188685 0.16270569 -0.1222631 0.19379592
000060 58 78 a9 3d e7 2f 72 be 35 74 7a be 5b cc d6 bd
       0.08274907 -0.23651086 -0.24458392 -0.104881965
000070 5e bd af 3d 01 60 80 be 6e 07 0a be 64 4e 64 3e
       0.08581041 -0.25073245 -0.13479397 0.22295529
000080 65 bd e0 bd f8 98 33 3e d7 9f 0b be 2b 23 67 3d
       -0.10973624 0.17538822 -0.13635193 0.056430023
000090 fd 2d 6d 3e 51 42 7a be f0 99 20 be 22 74 6e 3e
       0.23162074 -0.2443936 -0.15683722 0.23286489
0000a0 1a ad b1 3c 37 d6 39 3e e0 68 97 bd 60 3b 2d 3e
       0.021688987 0.18148123 -0.0739305 0.16917181
0000b0 ca 01 32 3e ff e6 c5 bd c3 c8 09 3e a9 30 cd bd
       0.17383495 -0.096632 0.13455491 -0.10019047
0000c0 60 09 30 3e dd 40 3a be a9 57 00 3c 06 99 c9 bd
       0.17191076 -0.18188806 0.0078334 -0.0984364
0000d0 17 7f aa 3d 9c a3 39 be fd ec ce bd ec 9c 24 be
       0.08325022 -0.18128818 -0.10103796 -0.16075486
0000e0 43 b0 33 bd 34 5c 19 3e 63 52 10 bd d3 02 67 be
       -0.04386927 0.14976579 -0.03523482 -0.22559671
0000f0 6d 4d 59 be e5 dc d0 3d d0 4d 36 3d 02 e8 c2 bd
       -0.21220942 0.10198382 0.0445078 -0.09516908
000100 9e d9 80 bd 70 ed 07 3e 01 f0 75 3e 43 c5 1f 3c
       -0.06291507 0.13274169 0.24017335 0.009751621
000110 1f 85 21 3d fc 03 42 3e 23 9d 42 3d 61 52 dc bd
       0.039433595 0.18946832 0.04751314 -0.107579
000120 38 31 46 be 16 e0 84 3e 06 d0 22 be 67 78 2d 3e
       -0.19354713 0.25952214 -0.15899667 0.16940461
000130 29 fd dc bc b7 14 ea bd 9b 32 a7 bd 33 1b ad 3c
       -0.026976185 -0.11429732 -0.08163949 0.021131134
000140 09 8c 20 3e f9 56 64 3e f1 ee d5 3d f5 7b 4f be
       0.15678419 0.22298802 0.10445965 -0.2026213
000150 49 3f 48 bd eb 07 42 be 9c 7e 52 3d 3d 52 29 be
       -0.04888848 -0.18948333 0.051390275 -0.16535278
000160 11 32 67 be 12 9f 31 be c3 1f 80 be 6b fe 29 be
       -0.22577693 -0.17345837 -0.25024232 -0.16600959
000170 48 04 0f 3d 43 a0 cc 3d 03 7a 71 be f7 0c 89 bd
       0.034916192 0.09991505 -0.235817 -0.06691926
000180 34 0d 6f 3e b9 89 09 be e3 46 16 3e 63 91 66 be
       0.2334488 -0.13431443 0.14675479 -0.22516398
000190 0c 6b 3a 3e 2f 0b 73 bc d3 86 19 3e c1 79 d4 bd
       0.18204898 -0.014834209 0.14992838 -0.10374785
0001a0 0a bf ce 3d 0d 02 48 be 34 45 33 3e 9e 3d 18 bd
       0.100950316 -0.19532032 0.17506868 -0.037168138
0001b0 de 0c c2 bd 0a c5 15 be 39 6d b0 3c b2 cd 77 be
       -0.094751105 -0.14625946 0.021536456 -0.2419956
0001c0 e3 25 79 be b4 01 ec 3d 4d c5 c5 3d 32 b1 71 3e
       -0.24330859 0.11523762 0.09656773 0.23602751
0001d0 1d c2 2e 3e eb a5 b2 3d 96 3d a4 bc bf 16 27 3e
       0.17066236 0.087230526 -0.020048898 0.1631727
0001e0 f3 0f 53 be 53 a1 19 bd d0 e9 05 3e cd 91 b4 3d
       -0.20611553 -0.037507366 0.13077474 0.08816872
0001f0 9f a1 0f be a4 df 49 3e a3 2b 32 3e 23 af 5a 3e
       -0.14026497 0.19714218 0.17399459 0.21355872
000200 3f 8c 6a be ad ae a4 3d 63 49 ae 3d cd 8e 5a bd
       -0.22905062 0.08041129 0.08510091 -0.05335884
000210 44 f8 d8 3d 82 d2 3e 3e e8 e5 66 be a1 c6 43 bd
       0.10594228 0.1863499 -0.2254864 -0.04779685
000220 80 f4 34 3e 6a 70 56 be b6 34 31 bd ac 33 6b be
       0.17671394 -0.2094132 -0.04326316 -0.2296893
000230 d7 6b f9 bd 70 b0 3d be c6 39 68 be f6 ad ce 3d
       -0.12178772 -0.18524337 -0.22678289 0.10091774
000240 fa 84 08 3d 09 8b d6 bd f1 bb ee 3c 90 73 2b bd
       0.03332994 -0.104757376 0.029142352 -0.041858256
000250 96 7f 4e 3e 51 65 71 3e 80 cf 36 be 9e b7 9a 3d
       0.20165858 0.23573805 -0.17852592 0.075545534
000260 44 ad 5a bd 54 89 73 be 99 05 1f 3e b3 ac 29 be
       -0.053387895 -0.23782855 0.15529479 -0.16569786
000270 d7 03 00 3e 3b 9a a0 3d 60 12 44 be 10 b9 b0 bb
       0.12501465 0.07841917 -0.19147635 -0.005393155
000280 08 a5 ac 3d d1 b2 d5 bd bb 00 a8 bd a9 d0 c5 3d
       0.08429915 -0.10434497 -0.08203264 0.096589394
000290 64 59 08 3e 74 03 40 3e c7 e7 e6 3d 46 e5 c9 3d
       0.1331535 0.18751317 0.11274677 0.098581836
0002a0 49 db 46 3e 6b eb b4 3c 0f e2 b9 bd 83 b1 c3 bd
       0.19419588 0.022084912 -0.090763204 -0.09555342
0002b0 11 d0 09 be d9 7c 19 3d b5 24 bb bd 02 4b 11 be
       -0.13458277 0.03747258 -0.09137861 -0.1418877
0002c0 3f bf 03 3e d4 fd 80 be 91 eb 3b bd c7 8c 75 3e
       0.12865923 -0.25193655 -0.04587895 0.23979484
0002d0 c0 37 6a 3d ef e4 c1 3d 05 db 76 3c 51 28 5a 3e
       0.057182074 0.09467494 0.015066867 0.21304442
0002e0 0a 4d 44 3c 29 4c ba bd 36 a3 8b bd 3d cf 1f 3c
       0.011981258 -0.09096558 -0.068182394 0.009753999
0002f0 af c9 59 3d d8 37 e0 bc be 54 ac bd 6e 39 73 be
       0.053170856 -0.027370378 -0.08414601 -0.23752376
000300 52 c4 3f 3e e5 09 1b be 7d 51 03 be 60 56 7c 3e
       0.18727234 -0.15140493 -0.12824054 0.24642324
000310 2b 1f 0f 3d fb bb 4f be e1 44 e6 3d a9 d3 20 3e
       0.034941833 -0.20286553 0.11243606 0.15705742
000320 ff f0 52 3e af dd 4f 3e 7f 06 37 be 24 96 1c bd
       0.20599745 0.2029941 -0.17873572 -0.038229123
000330 0a bb 24 be 3b c8 ef bd 1d b9 47 be ae 30 00 3d
       -0.16086975 -0.11708113 -0.19504209 0.031296425
000340 00 14 10 be 54 e1 87 bc 6f e9 84 3e 7e 4a 8f 3d
       -0.1407013 -0.016586937 0.25959346 0.0699663
000350 fa 79 4f 3d b0 06 44 be 49 7a 49 3d 39 f0 d0 3d
       0.050653435 -0.19143176 0.049188886 0.10202069
000360 94 3c 1f 3d 84 bc bd bd a6 de 77 be 6b 3e 4e be
       0.03887613 -0.09264472 -0.24206027 -0.20140998
000370 ab 98 17 be f3 16 4b 3e 8f f7 17 3e 04 1f a6 bd
       -0.14804332 0.19832973 0.1484053 -0.081113845
000380 03 d7 e5 3b d4 f2 56 3d e8 04 3d 3e f2 c6 05 be
       0.007014157 0.052477673 0.18458903 -0.13064173
000390 ad 45 45 3e d5 01 6a 3e 70 32 08 3e 73 77 45 be
       0.1926486 0.22852261 0.1330049 -0.19283848
0003a0 c2 fc 4a be f0 67 44 3e 8c 53 99 bd c3 02 68 3e
       -0.19822982 0.19180274 -0.074866384 0.22657304
0003b0 c7 ab fa 3d 6c a4 7b 3e d8 6f ed 3d de 91 64 bd
       0.12239795 0.2457444 0.11593598 -0.055803172
0003c0 77 0a 1c bd c9 bc 4e be f6 41 4e 3e 8a 61 50 be
       -0.038095918 -0.20189203 0.2014235 -0.20349708
0003d0 39 d7 47 bd 38 e3 d4 3d f2 5d 0e 3e df fa 3c 3e
       -0.048789237 0.10394901 0.13903025 0.18455075
0003e0 5f 03 1b bc 68 71 6b 3e 59 19 29 3e 77 cc 52 3e
       -0.009461253 0.2299248 0.16513576 0.2058581
0003f0 b9 cf 05 be c1 4c 6f 3e f1 03 17 3e 45 f3 71 be
       -0.13067521 0.23369123 0.14747597 -0.23627956

context_encoder.encoder.0.pool2.mlp.conv.bias f4 [16]
000000 79 ee d2 39 e5 f1 bf 3a e0 5c 99 b9 00 60 55 3c
       0.00040231997 0.0014644234 -0.0002925163 0.013023376
000010 3e 24 a2 bb d8 19 99 38 e3 68 87 3c 86 9a 9b ba
       -0.004948168 7.300422e-05 0.016529506 -0.0011871613
000020 da c1 42 39 c2 ee 2a bc 94 18 75 3a 79 b9 b1 3c
       0.00018573497 -0.010432901 0.0009349671 0.021694886
000030 0e 5f 8f 39 a7 4c ff 3a 98 3c 68 39 13 3f e6 b9
       0.00027345907 0.00194778 0.00022147817 -0.00043916013

context_encoder.encoder.0.pool2.mlp.batch_norm.weight f4 [16]
000000 b5 ca 7f 3f 4f 00 7d 3f e0 bc 7f 3f ae 58 7f 3f
       0.9991868 0.98828596 0.99897575 0.9974469
000010 d3 50 7b 3f ba 3a 7c 3f 42 c2 81 3f e7 10 7e 3f
       0.981702 0.9852711 1.0137408 0.9924454
000020 c1 ce 7b 3f 2c 40 7b 3f 56 ce 80 3f 4a 75 80 3f
       0.98362356 0.98144794 1.0062969 1.0035794
000030 f2 2e 7f 3f c4 8d 7f 3f 3f bd 80 3f 7d 3d 79 3f
       0.9968101 0.9982569 1.0057753 0.9735945

context_encoder.encoder.0.pool2.mlp.batch_norm.bias f4 [16]
000000 e7 5e 69 3b 61 ff 24 bc 20 48 68 3b 5a f7 9d b8
       0.0035609545 -0.010070653 0.003544338 -7.532416e-05
000010 48 c0 14 bc fb 27 0b 3c 24 bc f9 3b ea 70 20 ba
       -0.009079047 0.008493419 0.007621305 -0.0006120341
000020 37 44 4f bc 5a d0 5a 3a 5f 1c 70 3c 49 f4 83 3b
       -0.012650541 0.0008347087 0.014655202 0.004026924
000030 f4 64 27 3b 08 14 51 3b 5c 65 c7 b9 06 60 54 bc
       0.002554235 0.0031902809 -0.00038031756 -0.012962347

context_encoder.encoder.0.pool2.mlp.batch_norm.running_mean f4 [16]
000000 a6 25 4e be 61 e6 79 bd 5a a1 a3 3c c0 12 8f be
       -0.20131549 -0.061010722 0.0199744 -0.27943993
000010 c3 18 3d 3e b6 d6 ba be 05 68 11 be b8 14 ac 3e
       0.18466477 -0.36491936 -0.14199837 0.33609557
000020 80 55 64 be d1 ed a6 3b 35 ea 47 3d 2b 2f ae 3d
       -0.2229824 0.005094268 0.04880734 0.0850509
000030 f9 eb 5d bd 01 69 b5 bd 21 85 99 3e 1d 18 6e 3e
       -0.05418012 -0.088579185 0.29984382 0.23251386

context_encoder.encoder.0.pool2.mlp.batch_norm.running_var f4 [16]
000000 9e c7 0e 3e 23 f6 84 3d 2c 15 39 3e 36 f8 1b 3e
       0.13943335 0.06492259 0.18074483 0.15231404
000010 f6 ac 92 3e 9a 47 13 3e f5 4e ff 3d b5 d0 80 3d
       0.28647584 0.14382783 0.12466232 0.06289808
000020 07 cf da 3d f0 99 54 3d b5 56 06 3e fd ab ab 3d
       0.106840186 0.05190462 0.13119014 0.083824135
000030 b6 b1 32 3e 7f c6 1d 3e 85 ca 42 3e 68 b1 bd 3d
       0.17450604 0.15407752 0.19022568 0.09262353

context_encoder.encoder.0.mlp2.conv.weight f4 [32, 16, 1, 1]
000000 e3 57 61 3d 90 79 4e 3e 0e 7c 70 3e 1a dc 60 3c
       0.055015456 0.2016356 0.23484823 0.013724351
000010 7b a3 b5 bc a9 af 0f 3e b7 d9 05 be a7 1e d5 bd
       -0.02217268 0.14031853 -0.13071333 -0.10406237
000020 d2 a0 42 be 98 2f 24 3e a3 08 c4 bd da 5d c5 3d
       -0.1900666 0.1603378 -0.0957196 0.096370414
000030 6d 6b 06 3a fa d5 6b bd 9f 1d 68 be b6 06 1c 3e
       0.0005127702 -0.05757711 -0.2266755 0.15236935
000040 12 e4 cd 39 5e fd 34 3e f9 f5 06 be 60 2c b0 bc
       0.00039270573 0.17674777 -0.13179769 -0.021505535
000050 2d 7a 5d 3e ac cf 1f 3e f1 2a ab 3d 99 6f 92 bd
       0.21628638 0.15606564 0.083578 -0.07150192
000060 94 02 45 be a5 89 2b 3e c1 ed 78 3e 4f a0 77 3d
       -0.19239265 0.16751726 0.24309446 0.060455617
000070 5c 20 05 be 1d 72 2d be 74 63 04 be 5e 79 10 3e
       -0.13000625 -0.16938062 -0.12928563 0.14108798
000080 e7 04 51 be 18 05 e4 3d 34 aa 4a 3e 9d 34 81 be
       -0.20412026 0.11133784 0.1979149 -0.25235453
000090 16 2c 0c be d0 bd 0b be 0c a3 f2 3d 8e d0 e6 3d
       -0.13688692 -0.13646626 0.11847505 0.112702474
0000a0 f3 86 f4 bb 13 36 5c 3e 24 cd 19 3d 28 bf 01 be
       -0.0074623763 0.21505003 0.037549153 -0.12670577
0000b0 3e 3b 50 be e7 9d bf 3d ad a3 03 bd 8f 89 b7 3d
       -0.20335099 0.09356289 -0.032138515 0.08961784
0000c0 f9 19 af bd 02 76 69 3e 49 1d 14 be 46 bc c9 bd
       -0.08549876 0.22798923 -0.14464296 -0.098503634
0000d0 0a 68 c3 3d 73 c8 07 be 1b 15 31 be 8e a2 0d 3e
       0.09541328 -0.13260059 -0.17293207 0.13831541
0000e0 31 32 2f be 7b a6 57 be 08 26 4c be 6e e1 ea 3d
       -0.1710899 -0.21059601 -0.19936383 0.114687786
0000f0 c1 80 bb bd 3c 89 18 be 87 36 bd bc c9 47 af bd
       -0.09155417 -0.14896101 -0.02309729 -0.08558614
000100 19 a7 18 be c0 e3 2c 3c a3 7e 93 3d f1 80 76 3e
       -0.14907493 0.010552347 0.072018884 0.24072625
000110 88 e6 47 bb 44 27 ba 3d bc 62 f1 3d e9 ea 6e 3e
       -0.0030502398 0.090895206 0.1178641 0.23331799
000120 35 80 32 3e 33 56 58 3e 1a 86 e5 3c d2 45 60 3e
       0.1743172 0.21126632 0.028018046 0.21901634
000130 2d 9c b4 3b 0f a1 5d be c5 fc 81 be 34 14 57 3e
       0.0055117817 -0.2164347 -0.2538816 0.210038
000140 25 5c a2 bd d5 04 68 3e 75 d7 b5 bd 10 86 76 3d
       -0.079277314 0.22658093 -0.08878986 0.060186446
000150 5e a5 07 bd c4 31 36 bd 3b 6b 97 3c 3a 8c 08 3e
       -0.03311669 -0.044481054 0.018483749 0.13334742
000160 9e 3c 36 be 73 be ec bd d9 ca 63 3e 19 9b eb bd
       -0.17796561 -0.11559763 0.22245349 -0.11504192
000170 9c 39 b6 bd 97 4d 41 3e aa d3 76 bd ac 9b ad bd
       -0.08897707 0.18877254 -0.060260452 -0.08476958
000180 fe 58 eb 3d e7 10 32 be ab fb 4b be 37 a1 a1 3d
       0.11491583 -0.1738926 -0.19920222 0.078920774
000190 a0 3b 3d be 7a df b6 3d ae 95 b9 3a bd a6 23 3c
       -0.18479776 0.089293435 0.0014158988 0.009988484
0001a0 7f e4 d8 3c 12 3c 80 be 44 27 d9 3d 03 12 1d bc
       0.026476143 -0.2504583 0.106031924 -0.009586814
0001b0 67 57 74 be 34 5f 93 bd 86 47 2b 3e 54 20 41 3d
       -0.23861466 -0.07195893 0.16726503 0.04714997
0001c0 2d 9a f7 bd 54 3e 3c 3e 70 c1 a4 3c 03 08 72 3e
       -0.120899536 0.18383151 0.02011177 0.23635869
0001d0 89 b5 ff bd e7 30 22 3e 77 19 6f 3e ca 24 0c 3e
       -0.12485797 0.15838967 0.23349558 0.13685909
0001e0 6a 26 76 3e 46 9a fc bd 7f fc 08 3d f0 02 93 3d
       0.24038091 -0.12334113 0.033443924 0.07178295
0001f0 ee 4a 62 3e d2 56 76 be 10 a5 82 3d f1 aa 75 3e
       0.22098896 -0.24056557 0.063791394 0.2399099
000200 00 aa 76 be f7 3f f6 3d e2 f9 71 be 56 a3 7a 3e
       -0.24088287 0.12023919 -0.23630479 0.2447637
000210 12 f7 31 be 20 bc f0 bc 8d 7b 47 3e b1 42 46 3e
       -0.17379406 -0.02938658 0.19480725 0.19361378
000220 d3 31 05 3d fa 99 e9 3d 69 60 3c 3c 70 eb 36 3d
       0.03251822 0.11406322 0.011497595 0.044658124
000230 c9 1e ba 3d 51 9a 43 3e 4a 26 33 3d 0a 7a 03 be
       0.09087903 0.19101836 0.043737687 -0.12839523
000240 57 de 49 bd 7b c1 64 be 14 00 26 3e 78 ff 8e bd
       -0.049284305 -0.22339432 0.16210967 -0.069823205
000250 c5 d4 ba 3d e2 16 74 bc 58 a0 94 3d 72 91 c1 3d
       0.09122614 -0.014898034 0.07257146 0.094515696
000260 1d b7 98 bd 2f de 2e be 63 2a 6b 3e f8 93 d3 bc
       -0.07456801 -0.17076944 0.22965388 -0.025827393
000270 ad 1b c4 3c f4 d6 10 3e 4a 83 dd bd 13 cb e2 bd
       0.023938978 0.14144498 -0.10816057 -0.110738896
000280 55 55 24 be ee 6a 38 be 54 fb a2 bd 67 2d 34 3e
       -0.16048177 -0.1800954 -0.07958093 0.17595445
000290 15 d8 24 bd a4 53 a1 ba 0a 88 1c 3e ac 5e 75 3c
       -0.040245134 -0.0012308252 0.1528627 0.014976185
0002a0 70 fb 04 3d da f4 4d bd 8b c0 51 3e 1c 25 ce 3d
       0.032466352 -0.050282337 0.20483606 0.10065672
0002b0 4e 88 0e be d2 e6 6c be f3 84 01 3e 54 b3 93 bd
       -0.13919184 -0.23134926 0.12648372 -0.072119385
0002c0 fa a3 0a be e1 84 a3 bc 9a 33 27 3e de fb 01 3e
       -0.13539115 -0.019960823 0.16328278 0.12693736
0002d0 04 9f 03 be 5f b4 59 be ff 24 7e 3c d9 06 3d 3d
       -0.12853628 -0.21260212 0.01551175 0.04614911
0002e0 38 2e 86 bd f6 49 eb bd 38 f7 ff bd 99 9a 1b 3e
       -0.06551784 -0.11488716 -0.12498325 0.15195693
0002f0 15 01 e5 bd e9 9e 37 be 45 df f1 3d 24 0c 84 3d
       -0.11181847 -0.17931713 0.118101634 0.06447628
000300 40 8f a1 bd 2c 93 1d 3d cd 12 63 be 20 90 5b be
       -0.07888651 0.038470432 -0.2217514 -0.21441698
000310 23 b1 cb bd 27 3e 63 be c2 33 69 3e 91 a5 50 3e
       -0.099458955 -0.22191678 0.2277365 0.20375659
000320 65 1e 21 3e 50 3a 6a be 55 10 7f be ff e9 9f bd
       0.15734251 -0.22873807 -0.24908574 -0.07808303
000330 a3 03 01 3e 71 a7 00 3e 66 73 21 3e 16 16 5e be
       0.12599044 0.12563874 0.15766677 -0.21688113
000340 42 64 59 bd 27 3d e1 bd 38 8c 6a bb 0b 63 23 be
       -0.05307413 -0.10997992 -0.0035789143 -0.1595575
000350 7b a3 2b 3e b0 96 cb 3d ea 48 55 bd 62 0a 41 be
       0.16761582 0.09940851 -0.05207149 -0.18851617
000360 bf b7 72 3c 4c 8d 4c 3e 82 56 92 bd 79 2b c1 bd
       0.014814316 0.19975775 -0.07145406 -0.0943212
000370 b1 7d 3d 3e 1d 69 2d 3e 18 93 63 be a5 94 3d 3b
       0.18504979 0.16934629 -0.2222408 0.002892771
000380 bf e7 2b be db fe cd 3d 77 1d 02 3e a2 4e 5c bd
       -0.16787623 0.100583754 0.12706552 -0.053785928
000390 24 5e 34 3e 02 0e 13 3e 86 5d 1a be 50 6b 0f ba
       0.17614037 0.14360812 -0.15074739 -0.0005471008
0003a0 41 9a 4e 3e bf 0b 91 bd 10 b5 02 3e 2b 04 af 3d
       0.2017603 -0.070823185 0.12764382 0.08545717
0003b0 e6 d5 3f be b6 14 73 3d b0 73 9e 3d 0e d7 f6 b9
       -0.1873394 0.059345923 0.077369094 -0.00047081005
0003c0 da c3 cf 3d 1b d5 29 be 54 7a 44 be ce 14 c0 3d
       0.101447776 -0.165852 -0.1918729 0.09378968
0003d0 73 c2 9c 3d 1b 43 74 bd 53 8f d5 ba c7 4e 45 3e
       0.07654276 -0.05963431 -0.0016293324 0.19268332
0003e0 41 58 84 bb ca 44 26 3e 9a 2e e7 bd 2c 6d 9c bd
       -0.004038841 0.16237178 -0.112881854 -0.076380104
0003f0 25 a9 6f be cb ae 6a 3e 8e 54 19 be 89 53 f5 bd
       -0.23404367 0.2291824 -0.14973661 -0.11978824

context_encoder.encoder.0.mlp2.conv.bias f4 [32]
000000 9a b4 99 3b c6 f1 32 bb d8 b6 3f 3a 7d 11 ac 37
       0.004690719 -0.0027304753 0.00073133176 2.0512141e-05
000010 f1 71 a5 36 e4 14 40 bc 33 52 a3 b5 79 81 c3 3c
       4.9306477e-06 -0.011723731 -1.216837e-06 0.023865448
000020 f4 93 86 3c 65 fd c7 bc 59 bf 91 b7 23 86 1e 34
       0.016427971 -0.02441282 -1.737445e-05 1.4763695e-07
000030 72 ca fe 3b 69 74 6e 36 06 bc ee bb 5c 43 b8 bc
       0.007775598 3.5532523e-06 -0.0072855977 -0.022493057
000040 eb ef af b7 7a 09 d6 37 13 64 2a 3c 6e d9 5b 37
       -2.0973346e-05 2.55152e-05 0.010399836 1.31040415e-05
000050 90 9f d7 b6 9f 98 04 b8 6c 49 e8 b6 4e a5 82 3b
       -6.426075e-06 -3.1613392e-05 -6.922686e-06 0.003986991
000060 29 03 c6 bc 60 38 35 b6 f0 e5 cd 35 ad 72 d9 bc
       -0.024171429 -2.7003916e-06 1.5340611e-06 -0.02654394
000070 d3 b6 ed b9 c5 27 7f 3c da 8b b2 bc 90 0a 87 39
       -0.00045340377 0.015573447 -0.021795202 0.00025757076

context_encoder.encoder.0.mlp2.batch_norm.weight f4 [32]
000000 4d 54 80 3f 02 0d 7d 3f e2 fc 7b 3f bb 2f 80 3f
       1.0025727 0.98847973 0.98432744 1.0014566
000010 0b db 7f 3f f7 bc 7e 3f 3f 90 7b 3f 77 dd 7e 3f
       0.9994361 0.9950709 0.9826698 0.9955668
000020 6f 3d 7c 3f 6b 72 80 3f 18 e5 7e 3f 23 f0 7c 3f
       0.9853124 1.0034918 0.9956832 0.9880392
000030 56 35 7c 3f 48 3f 7a 3f 80 67 7b 3f e9 f8 7e 3f
       0.98518884 0.9775281 0.98204803 0.99598557
000040 02 af 81 3f 5e 3b 7e 3f 61 d7 7b 3f c8 5d 7f 3f
       1.0131533 0.9930934 0.9837552 0.99752474
000050 37 4c 7f 3f 78 1b 7e 3f d7 50 7b 3f 60 a7 7e 3f
       0.9972567 0.99260664 0.98170227 0.99474144
000060 62 2c 7d 3f 53 b6 7f 3f cf af 7e 3f b4 e5 78 3f
       0.9889585 0.9988758 0.9948701 0.972255
000070 f5 af 7c 3f 05 c8 7f 3f 6d c9 7c 3f b1 59 7f 3f
       0.9870599 0.9991458 0.9874485 0.99746233

context_encoder.encoder.0.mlp2.batch_norm.bias f4 [32]
000000 67 c8 6e bc a7 2d c5 bb 41 53 55 3c 05 16 b1 3b
       -0.014574147 -0.006017405 0.013020338 0.0054042363
000010 5e dd 74 3c f6 de 6d bc 09 91 71 ba 5b 8c 1b 3b
       0.014945356 -0.01451849 -0.00092150323 0.0023734781
000020 ef 1f 8c ba 67 d5 65 3c 55 fc 3f 3b 3b 03 c6 3b
       -0.0010690669 0.01402793 0.0029294689 0.0060428656
000030 71 55 85 3b e7 b6 52 bb d5 66 ac 3b f8 c8 fb bb
       0.0040690233 -0.0032152475 0.005261282 -0.0076838695
000040 15 3e 38 3a 88 3d db 3b 72 96 0b 3b c1 22 2e 3c
       0.0007028294 0.0066906847 0.002129939 0.010628403
000050 a7 a5 04 bc 23 a4 06 3c 1c 29 d1 3b 52 f6 9e 3c
       -0.008096135 0.008217844 0.0063830744 0.019404564
000060 48 15 2a 3a d1 e5 fa bb 2e c3 a2 3c d4 1c ee 3a
       0.00064881565 -0.007656791 0.01986846 0.001816655
000070 9b 63 ae bb d1 d0 15 3c 0f 75 f9 ba 30 33 48 bb
       -0.0053219325 0.009144024 -0.0019032079 -0.0030548088

context_encoder.encoder.0.mlp2.batch_norm.running_mean f4 [32]
000000 5a 83 84 3d d0 9c df 3d f3 d5 85 bd a4 ed 9d be
       0.06470366 0.109185815 -0.06534948 -0.30845368
000010 43 5b 9e 3e 37 59 8a bc be e3 0f be ba c1 d9 3e
       0.30929002 -0.016888244 -0.1405172 0.42530614
000020 83 b9 37 3e a7 97 34 bc 5b 31 e6 bc 6d b9 f4 bd
       0.17941861 -0.011022485 -0.028099706 -0.1194943
000030 75 7f 25 be 52 5e 4f bd 16 ec 06 3e de c8 e9 bd
       -0.16161902 -0.05062706 0.13175997 -0.114152655
000040 5c d7 02 3e dc 2f 80 bd 5c 97 a3 3e df 9d 59 be
       0.12777466 -0.062591285 0.31951416 -0.2125163
000050 47 d0 aa 3d 5a e4 c9 3d 05 5d a7 bd 2f 3e 6d 3d
       0.08340507 0.09858008 -0.08172039 0.05792063
000060 a0 4f ce 3d ff d6 18 be 0a a1 0b bd 2f 4f 60 bd
       0.10073781 -0.14925765 -0.034089126 -0.054763015
000070 17 1c d4 3c 9a c9 a6 3e 65 5d 0b be 88 3b 4b be
       0.0258923 0.32575685 -0.13609846 -0.19846928
