checkpoints/mlp_2downsample_1208/final_model.pt (torch, 958698 bytes, 545 tensors)

context_encoder.fc0.weight f4 [8, 3]
00000000: 27d5 ebbd e515 d8be 6ded f93e 82cc debd
00000010: 73c1 edbe fbe8 e8bd d29d c53e b741 e03e
00000020: b939 8d3e 75a1 d03c 7bd4 943e 7b09 af3e
00000030: be5b 663d 6bbb 023e be0e 7fbe 6d61 b33e
00000040: 3a21 fa3e 5d5b 64be ba07 913e 48f8 3b3e
00000050: 7952 e7be c2eb 61be c7c4 a1bd 89c2 64bd
-0.11515265 -0.42204204 0.48813954 -0.108788505 -0.46436653 -0.113725625 0.3859697 0.43800136
0.275831 0.025467614 0.2906836 0.3418692 0.056239836 0.12766807 -0.24907967 0.35035267
0.48853475 -0.22300477 0.28326207 0.1835643 -0.4518011 -0.2206259 -0.078988604 -0.055849586

context_encoder.fc0.bias f4 [8]
00000000: e7f4 d43d ac8c 0a3d 10b2 1eba dc07 153e
00000010: 3e6d 89ba bb86 7bbd 6ab1 b83d 4b6a 753d
0.10398274 0.03382556 -0.0006053755 0.1455378 -0.0010484827 -0.061407786 0.09018214 0.059915822

context_encoder.bn0.weight f4 [8]
00000000: 594d 7f3f 8947 7f3f 56ad 7d3f b1ff 7e3f
00000010: d11b 7f3f fd7e 803f 6b12 803f 9163 803f
0.997274 0.9971853 0.99092615 0.99608904 0.9965182 1.0038754 1.0005621 1.0030385

context_encoder.bn0.bias f4 [8]
00000000: 415d 893b 3f51 8738 618f c03b 2b20 34bc
00000010: 44fe 153c 5193 cfbb 14da 14bc 576f 103b
0.004192025 6.452435e-05 0.005876467 -0.010993998 0.00915486 -0.0063347 -0.009085197 0.002203902

context_encoder.bn0.running_mean f4 [8]
00000000: 3334 8cc2 7e4b a1c2 bf53 e342 899a 3e42
00000010: 017b b741 c48a df42 5d86 6842 00a8 1ec2
-70.10195 -80.647446 113.66357 47.650913 22.93506 111.77103 58.131214 -39.664062

context_encoder.bn0.running_var f4 [8]
00000000: 9140 2a45 c56e 5b45 6578 d645 004b 9a44
00000010: 90d0 9143 5e4d d145 eb6b f144 73e8 6644
2724.0354 3510.923 6863.0493 1234.3438 291.6294 6697.671 1931.3724 923.632

context_encoder.encoder.0.mlp1.conv.weight f4 [8, 8, 1, 1]
00000000: 9dbb 373d 8361 f03c 0d11 92be 589e a9bd
00000010: 5441 9a3e 54f0 9fbe 78eb 043e f4a7 ad3e
00000020: e6ee 81be c8c6 0b3d fbf9 a9bd bcbc f2bd
00000030: ff23 aebe 4722 a03e 60f2 7a3e 6e6c b53e
00000040: bbe2 51be fda7 2e3e 0eec 093e d8cd fe3c
00000050: b190 883e a81a 80bc 5c7b 8c3d fcca 76be
00000060: e9c8 963d 11d0 773e 9c3a 423e ec29 7fbd
00000070: 3e93 113e 4866 3abe ad0d 5a3e dda4 3a3b
00000080: 5275 2dbd 9ecf c23d f813 aebd 0edb 28be
00000090: 19ba 3d3e 6be2 503c cf6e a1be f5a3 8c3e
000000a0: 89fc d5bd 9355 4a3e 9dc9 99be 776e 993e
000000b0: 7bde 85be 9da0 193e 0d75 ae3d d829 ac3e
000000c0: 8a7e 80be 1555 953d 4e22 6c3d 8b2d f43d
000000d0: ae2b 6bbd 3bc2 9dbe 2183 633e 37f6 173e
000000e0: 5e8f 6cbe 398c 843e 1a88 0bbe 6722 2c3d
000000f0: 4908 a2bd 630b 363c 0196 753d 213a 23be
0.044856656 0.029343372 -0.28528634 -0.08282155 0.30127966 -0.31238043 0.12980449 0.339172
-0.25377578 0.03412512 -0.08299633 -0.118524045 -0.34011838 0.31276152 0.24506521 0.35434288
-0.20496647 0.1705627 0.13468954 0.031104013 0.2667289 -0.01563771 0.068594664 -0.2410087
0.07362539 0.24200465 0.1896767 -0.06229584 0.14216325 -0.1820308 0.2129428 0.0028479614
-0.042348213 0.09512256 -0.084999025 -0.16489813 0.18528022 0.012749295 -0.31529853 0.2746884
-0.10448558 0.19759206 -0.3003663 0.2996709 -0.26146302 0.15002675 0.085184194 0.33625674
-0.25096542 0.07291619 0.057649903 0.11922749 -0.057414703 -0.3081225 0.2221799 0.14840017
-0.23101565 0.2588823 -0.13626137 0.042024996 -0.079117365 0.011111113 0.059957508 -0.15940143

context_encoder.encoder.0.mlp1.conv.bias f4 [8]
00000000: db96 0538 2e14 e6b5 f4e1 8db7 4895 443d
00000010: ec25 dd34 66b1 83bc 7228 933d f5ae 2ab9
3.1850166e-05 -1.7142208e-06 -1.6913727e-05 0.04799393 4.119205e-07 -0.016075801 0.07185449 -0.0001627764

context_encoder.encoder.0.mlp1.batch_norm.weight f4 [8]
00000000: cf8b 7c3f 1155 7e3f 5cd7 7f3f a2c3 7e3f
00000010: 3986 7c3f fe2f 803f 12ff 803f ee04 7f3f
0.9865083 0.9934855 0.9993799 0.9951726 0.9864231 1.0014646 1.0077841 0.996169

context_encoder.encoder.0.mlp1.batch_norm.bias f4 [8]
00000000: 62ad e13a b4fb 26bc 1604 2a3a ceb2 903b
00000010: 1e4c 83bc 0c8b 213c 19a1 bf3c 6f3c 81bb
0.001721781 -0.010191847 0.0006485594 0.0044158464 -0.016027506 0.0098598115 0.023392247 -0.003943972

context_encoder.encoder.0.mlp1.batch_norm.running_mean f4 [8]
00000000: 8b25 703d f432 453d db70 913d 14c4 893e
00000010: a741 38bc a20c ec3d cb47 993d 7ac3 aabd
0.058629554 0.048144296 0.071016036 0.26907408 -0.0112461215 0.11525847 0.074843965 -0.083380654

context_encoder.encoder.0.mlp1.batch_norm.running_var f4 [8]
00000000: eecc 203e 5229 263c 1d78 443e 99d6 a23c
00000010: 07e1 263e 1b90 c53d 431e df3a f1c7 193b
0.15703174 0.0101416875 0.19186445 0.019877719 0.16296779 0.096466266 0.0017022568 0.0023465122

context_encoder.encoder.0.lse1.mlp.conv.weight f4 [8, 10, 1, 1]
00000000: 3234 cabd 564c a6bc 5f8b 16be 7532 9a3e
00000010: 1716 0a3d f76b 90be 4c87 94be ea12 f53d
00000020: 942d 8a3e 41af 89be bd35 18be e798 54be
00000030: 2ec4 14be 81a2 aa3e e642 96be 7290 8f3e
00000040: 46e1 17be 96e2 b33d 1e21 50b8 39b1 84be
00000050: 0d3f 64be 93f5 b13d 0fa7 a8bb b672 983e
00000060: 334c 5ebe 743a 3b3b 4129 c3bc 8851 5abd
00000070: 26ac 4bbe a16f 12be 6761 92be fe79 8abd
00000080: dfc0 e0bd 6460 0e3e 8c47 e13d 3f1f df3c
00000090: ab18 6dbd b083 06be 943e 8c3e 1048 94bd
000000a0: 1073 473e 2b5e 7d3e 013d 953e 4731 9c3c
000000b0: 4e1d 98be b7fc 23be c6a2 4fbd 8a7e 5c3e
000000c0: c2bd 413e 3d1b c1bd f86a 86be d353 233d
000000d0: 7ab3 193e 43ad 453e 8c93 923e f3e0 93bd
000000e0: 7e3a a53e 639c 72bd 83ab fc3c 170b a33e
000000f0: ad63 8f3e 4863 983e 7f1c 5dbe fe01 5fbe
00000100: 1de6 a4be f0c4 0d3e f3ba 8a3e e322 81be
00000110: 0b19 563e 9e5e 88be e21b 813d dbbe e8bd
00000120: 2d15 d23c a93c 5a3e e4a1 4b3e 6f6a 993e
00000130: 1417 8d3e 87c8 253e 2c1b fabd bc01 3fbc
-0.09873237 -0.020300072 -0.14701603 0.3011662 0.033712473 -0.2820737 -0.29009473 0.11966498
0.26987898 -0.2689152 -0.1486425 -0.20761453 -0.14527962 0.33327106 -0.29347914 0.2803989
-0.14832029 0.08783452 -4.9621907e-05 -0.2591646 -0.22289677 0.08689418 -0.005146868 0.29775017
-0.21708755 0.0028568776 -0.023823382 -0.05330041 -0.19889888 -0.14300396 -0.28589937 -0.067615494
-0.10974287 0.13903958 0.109999746 0.027236579 -0.057884853 -0.13136172 0.27391493 -0.07240307
0.19477487 0.24742953 0.29148105 0.019066466 -0.29709858 -0.16014372 -0.050692342 0.21532646
0.18920043 -0.094290234 -0.26253486 0.039874863 0.15009871 0.19304375 0.28628194 -0.0722064
0.32271188 -0.059231173 0.030843502 0.31844398 0.28005734 0.29763246 -0.21592902 -0.21778104
-0.32206813 0.13844657 0.27095756 -0.2522193 0.2090799 -0.26634687 0.06304146 -0.11364528
0.025644863 0.21312203 0.19885975 0.29964015 0.2755667 0.16189776 -0.12212214 -0.011658128

context_encoder.encoder.0.lse1.mlp.conv.bias f4 [8]
00000000: c91c fd3b 1869 e53b 943a 23bb ffcc c4ba
00000010: 385f 6fb9 54ae 81bc d836 b735 c8d9 61b8
0.0077243787 0.0070010535 -0.0024906741 -0.0015014707 -0.00022828288 -0.015830196 1.3650524e-06 -5.3847005e-05

context_encoder.encoder.0.lse1.mlp.batch_norm.weight f4 [8]
00000000: d1b2 7d3f 37ba 7f3f 6af6 7b3f ca36 7f3f
00000010: ff39 803f 46c7 7e3f 9e9a 803f fb52 7f3f
0.9910098 0.99893516 0.98422873 0.99692976 1.0017699 0.9952282 1.0047185 0.99735993

context_encoder.encoder.0.lse1.mlp.batch_norm.bias f4 [8]
00000000: abbb abbb 44e1 9b3c c32d 21bc 5581 9c3b
00000010: 7e65 db3b c142 443b 7549 c33a 13be 523c
-0.0052408776 0.019028313 -0.009837571 0.0047761598 0.0066954484 0.0029947015 0.0014899211 0.0128627

context_encoder.encoder.0.lse1.mlp.batch_norm.running_mean f4 [8]
00000000: bd1c 0f42 3d62 9641 8f3c d2c2 0d9b 0542
00000010: 8a75 723f 6d26 dcc0 66f0 1ebf bac7 a642
35.778065 18.797968 -105.11828 33.401417 0.947106 -6.8796906 -0.6208557 83.39009

context_encoder.encoder.0.lse1.mlp.batch_norm.running_var f4 [8]
00000000: cab9 6144 f317 0f44 0add 8044 e4ec b344
00000010: 2163 aa43 f6c2 a745 e453 9545 b3b7 0145
902.90295 572.3742 1030.9075 1439.4028 340.77444 5368.37 4778.4863 2075.4812

context_encoder.encoder.0.pool1.score_fn.0.weight f4 [16, 16]
00000000: 6fc3 b2bc b956 0abd 66ff b03b 4b48 4dbc
00000010: 2e48 253c 260e 98bc 43a9 1f3d 4819 45bb
00000020: 4df0 2dbc 2a70 e6bb dc40 a23b 25f1 7eba
00000030: 8a00 5dbb 75f7 9dba 6f05 9f3a c644 1cbc
00000040: e409 5a3d 39a7 003e 5d90 40bd a485 2dbc
00000050: 2131 a3bd 39bc 783d 5962 1e3c e7fd 6e3c
00000060: a425 893c ba21 073d 1c6a f13a 794e f4bc
00000070: 7d3c 21bd da49 aabc ccd9 abbb 88a9 04bc
00000080: 4dc5 30bc d562 813c eaea 00bc d02b 7bbc
00000090: 0821 203d 4371 413c 01db 9f3d f836 57bd
000000a0: 21ec c6bb a831 94bd e4d1 c8bc f2cc 1cbc
000000b0: 3306 babb 42ef fbbc 91aa 093d 61f3 cbbc
000000c0: db3e 8f3c 9ae5 013c db38 e13b ba0c 18bd
000000d0: 6d6f c439 2d4a e8bb 26b9 533c e10f 8d3c
000000e0: fffe 89bc 047b f33b 6c42 32bd 392a 61bd
000000f0: d2f0 2abc f2d1 483c 7cf9 9dbc 2e44 b33a
00000100: 84a3 8bbb c978 1abd 65e2 9ebc 438f d63c
00000110: 1ccc 62bc eaed dfbb 22bb f93b 4a0f ed3c
00000120: 8cd9 beb9 8897 3e39 7a66 1cbd 72d7 c83a
00000130: a82a 85bc bf69 f039 8280 373c 5293 79bc
00000140: 7ac4 483d 37c0 8c3d 95bf c43c 473d 083c
00000150: 0043 89bc a4c5 273c 32e8 c33b b071 1fbb
00000160: 67e5 f63b 003c ad3d 19a1 8d3a 07c7 ec3b
00000170: 4042 073c 73b1 15bb 492f a63c f8dc 423c
00000180: bed4 20bc 45bd 523d 5400 81bd a081 85bd
00000190: 9369 3f3d d2c2 27bd 1794 c43d 1486 e6bd
000001a0: 288d 3fbd c362 b4bc 774e edbc 149a 2bbd
000001b0: a3f4 1bbd dacf 063d 518f b0bc 3054 88bd
000001c0: 0e26 23bd c67b 70bd 004f eebc 2c95 06bb
000001d0: e1e3 24bc 9d7d 5fbb b538 b4bd 4d20 fdbc
000001e0: 658c 1fbd 66ac f43c b9f2 86bb e714 31bd
000001f0: 23c3 063d 079e 693b 3039 e9bc 9b15 bb3a
00000200: 9db3 46bd 44b0 a63c b82d d5ba 1179 6abc
00000210: 3776 f3ba 4392 d5ba 405d 52bd 0462 073e
00000220: 3020 a83d b66a a2bc 5908 eebb 9e20 9abd
00000230: 7e8f 183d 263c 8abc 4532 1bbb 9ba2 e7bb
00000240: 716f 243b f038 6c3b e3c7 9d3c 18f1 3ebd
00000250: a41e debb 1cb2 44bc c7d9 cbbc 55fb f1b9
00000260: f442 533d 981e bd3b ea60 b9bc 35fb ed3a
00000270: ddbf 7fbc f318 363b e2e9 5cbb a7a3 a0bc
00000280: ba37 393d e817 393d 55fa 3e3c ad22 3ebc
00000290: 650b 973d 57c9 4cbd 36f2 983d 43a7 ef3c
000002a0: 1c5a cf3b 1b49 b2bd 3ae1 773d 98dc 2abd
000002b0: d2db 693d 5520 b8bc 307d 42bc dbbc 8f3b
000002c0: 1cc7 053c 7d4a 6e3c 793d 9b3a ffae 083d
000002d0: af5d 4f3b 5d56 b73b 477d 95bd ceaf b73c
000002e0: 1a5f a4bd e10f 3dbd bca2 14bb 6462 873c
000002f0: 80f0 91ba d388 60ba c773 00bb 9957 28bb
00000300: 1f17 a1ba 64df 05bb 30bb 67bb 8ac9 1ebc
00000310: fb6f 56b8 7a18 723c 1f8a 973b 394b 9dbb
00000320: 844d 68bb 135e 97bb 4a14 9f3c ed50 dbba
00000330: abdf 9e3c 7549 cc3a f316 08b9 b2af efbb
00000340: 5ef5 07bb 1d79 ad3c 2ac8 82ba 1e05 00bb
00000350: 8793 2cbc ca4b 32bb b212 c93b d287 a03c
00000360: 7fd4 1d38 549d b3bb 6f67 973c 460c b63a
00000370: f3b5 043d 0832 86bb 7502 f6b9 d7e0 843a
00000380: 9abb 8739 556b 9fba c176 acba 8395 8d3c
00000390: 5245 b83a c51e fc3a 3557 323d c077 adbb
000003a0: a98f a1ba 4dad 8cbb 8acc 97ba 352b 9e3a
000003b0: 23ee d93a 90e2 953a 9dcd 873d 96e5 80ba
000003c0: 6c01 ea3a d3da 023d 9b9f 17b9 0fb8 073c
000003d0: d497 42ba 27c2 e23b a643 8cba ed03 ccbc
000003e0: 6909 963c 9cfa 7b3b c0f0 6aba 79c8 d03c
000003f0: f4b1 b33b 52c9 16bc 157c 2d3b d965 f53a
-0.021821706 -0.03377411 0.0054015396 -0.012529443 0.01008801 -0.018561434 0.03897978 -0.0030074883
-0.010616374 -0.007032414 0.0049515795 -0.00097252644 -0.0033722245 -0.0012051897 0.0012132357 -0.009537881
0.05323209 0.1256379 -0.047012676 -0.010590944 -0.07968355 0.060726378 0.009667003 0.014586902
0.016741581 0.03299115 0.0018418464 -0.029822575 -0.039364327 -0.020787168 -0.0052444693 -0.00809706
-0.010789228 0.015794197 -0.007868508 -0.01533027 0.039094 0.011806789 0.078054436 -0.052542657
-0.006070629 -0.07236034 -0.024514146 -0.009570347 -0.0056770085 -0.030753735 0.03360993 -0.024896326
0.017486027 0.007928276 0.006873233 -0.037121512 0.00037467052 -0.0070889206 0.012922561 0.017219486
-0.016845224 0.007430436 -0.043520376 -0.054971907 -0.010433393 0.012257086 -0.019284002 0.0013676935
-0.004261436 -0.037712846 -0.019395063 0.02619136 -0.013842609 -0.0068337815 0.007621185 0.028937954
-0.0003640171 0.00018176262 -0.038183667 0.0015322997 -0.016255692 0.00045855154 0.011200072 -0.015232878
0.0490155 0.068725996 0.024017135 0.008315391 -0.01675558 0.010239992 0.0059786076 -0.0024329238
0.007534671 0.0845871 0.0010805457 0.0072258743 0.008255541 -0.0022841364 0.02028622 0.011893503
-0.009816347 0.051450033 -0.06298891 -0.06518865 0.046731543 -0.04095728 0.095985584 -0.11256042
-0.046765476 -0.02201975 -0.028968079 -0.041894987 -0.0380751 0.032913066 -0.021552714 -0.066566825
-0.039831214 -0.05871179 -0.029090405 -0.002053569 -0.010064096 -0.003410197 -0.087998785 -0.030899191
-0.03895225 0.029867362 -0.0041182903 -0.043232825 0.03290094 0.003564717 -0.028469652 0.0014273407
-0.048511136 0.020347722 -0.0016264236 -0.014311091 -0.001857466 -0.00162942 -0.05135846 0.13220984
0.08209264 -0.019826274 -0.0072641787 -0.075257525 0.03724622 -0.016874384 -0.0023681086 -0.0070689446
0.0025090838 0.003604468 0.019260352 -0.046616644 -0.006778555 -0.012005355 -0.024884118 -0.0004615436
0.051577523 0.0057714693 -0.02262922 0.001815653 -0.015609709 0.0027785867 -0.003370874 -0.019609286
0.04521916 0.045188814 0.0116563635 -0.011604947 0.0737522 -0.0499967 0.07468073 0.029254561
0.0063278805 -0.0870535 0.060517527 -0.04171428 0.057094403 -0.022476355 -0.011870667 0.004386527
0.008165147 0.014544127 0.0011843882 0.033370014 0.0031641533 0.005595012 -0.072992854 0.022422697
-0.08025952 -0.04615772 -0.0022680005 0.016526408 -0.0011134297 -0.000856531 -0.0019600259 -0.0025686978
-0.0012290216 -0.002042734 -0.0035359375 -0.009691605 -5.1125866e-05 0.0147763435 0.0046246196 -0.004800227
-0.0035446594 -0.004619369 0.019418854 -0.0016732492 0.019393763 0.0015585857 -0.0001297852 -0.0073146457
-0.0020745615 0.021175915 -0.0009977866 -0.00195343 -0.01053322 -0.0027205818 0.006136262 0.019596014
3.762962e-05 -0.0054814015 0.018481938 0.0013889156 0.032400083 -0.0040953197 -0.00046922607 0.0010137808
0.0002588898 -0.0012162725 -0.001315795 0.017283207 0.0014058745 0.0019235244 0.0435402 -0.0052938163
-0.0012326139 -0.00429312 -0.0011581343 0.001206732 0.0016626756 0.0011435319 0.066310145 -0.0009834047
0.0017853207 0.03194697 -0.0001445994 0.008283629 -0.0007423137 0.0069201174 -0.0010701313 -0.024904216
0.018315034 0.0038448935 -0.0008962266 0.025486218 0.00548386 -0.009203272 0.0026471664 0.001872237

context_encoder.encoder.0.pool1.score_fn.0.bias f4 [16]
00000000: 25dc 1b32 ddf0 a839 5150 9eb4 630a 99ba
00000010: cfc0 1336 a5d0 9f38 ed08 1bba 79c7 8934
00000020: 7fb2 bab3 dabb 98b4 f823 9435 a64b a1bb
00000030: af0d f832 3d83 ecba 2a04 e4bb 292e 1335
9.0722425e-09 0.00032222914 -2.948823e-07 -0.0011676069 2.2016936e-06 7.620574e-05 -0.0005914111 2.5663374e-07
-8.693768e-08 -2.8448886e-07 1.1037328e-06 -0.004922348 2.8877222e-08 -0.0018044483 -0.006958504 5.482894e-07

context_encoder.encoder.0.pool1.mlp.conv.weight f4 [8, 16, 1, 1]
00000000: 5e0f 35bd 0baa 7f3d bd9b 2abe fdae 0f3e
00000010: 6c62 24be 81dc 89bd 9f4f c1bd 9cb1 3b3d
00000020: 05bd 52be 127f b43d 5551 253e 5746 a2bd
00000030: 5d5e a7bd 2a02 38be a18f 353e 4fdd 423e
00000040: 3bdb 133e 9a34 16be d1fc b03d a6d5 75be
00000050: 9394 34be 48bc 1d3e 27ef bb3d 9a3a 2cbe
00000060: 21c3 c9bc 7b31 863d e259 77be 99d3 29be
00000070: 7d98 f4bd f652 05bd 379b 20be 18d2 8e3d
00000080: bef6 1abe c284 c8bd b329 533d ffb3 5b3e
00000090: 2cb2 b7bd fc1f 113e 8a45 453e d13f 643e
000000a0: 310a 663d f264 6fbe 308b f83d b953 093e
000000b0: 77b0 cabd 570c 5cbe 83be 67be 18a1 183c
000000c0: 494f 8a3d 9f67 38be 9f5d 09be 356d 943c
000000d0: 3c24 7b3d c55c 82be ad09 5e3c c990 21bc
000000e0: 9f3c 863d b84b a03a f527 593d 814e b8bc
000000f0: 43a9 22be 045b 34be 3965 fbbd bd7f 173e
00000100: cd02 b33d 372f 8e3d 9721 74be f26d 393e
00000110: edee 03bd 5970 7cbe b117 17be 402d 21be
00000120: b6ca b13d e2d9 0ebd 2634 c4bb cca2 973d
00000130: 9461 b33c 206b 4cbe f2d0 503e ff23 0abe
00000140: e33c 10bd b484 2fbe 64ab 44bd 4648 42be
00000150: d834 a5bc 90dd f83d e726 823b 4472 2fbe
00000160: c0e5 d7bd 0b00 3ebe 67cd 143c f772 643d
00000170: 47ba aebd f984 263d 42fd ddbd 7d59 3f3e
00000180: 25bf 023e 949f 143e ad99 633c 93b3 52be
00000190: 9ba5 d5bb 6579 1f3e 8e7a 35be 8ca0 34be
000001a0: ef1e 76ba 779b d23b 38e4 15bc 2daa 20be
000001b0: 037d cdbc 7d01 13be caf3 0a3e 4c3c 1b3e
000001c0: 5b61 c13d d585 e8bd a449 c63d 1c82 21bd
000001d0: 8d16 16bd d78c bf3d c261 e83c 623e 9abc
000001e0: b484 fc3c 6696 213e df3f 613e 3efd 023e
000001f0: 71ca e1bd 0140 4bbe d460 763e d3c4 813d
-0.04420411 0.062418025 -0.16660972 0.14031596 -0.1605317 -0.06731511 -0.09439015 0.04582368
-0.20579918 0.08813299 0.16144307 -0.079235725 -0.08172295 -0.17969576 0.17730571 0.19029735
0.14439099 -0.14668503 0.08641971 -0.24007282 -0.17634802 0.15403855 0.09176474 -0.1681923
-0.024629178 0.065524064 -0.24155381 -0.16584624 -0.11943147 -0.03254982 -0.1568421 0.06973666
-0.15133187 -0.097909465 0.05155344 0.21455382 -0.089695305 0.14172357 0.19264808 0.22289969
0.056162063 -0.23378351 0.12135923 0.13410844 -0.09896939 -0.21489082 -0.22631268 0.0093157515
0.06753404 -0.18008278 -0.1341462 0.01811848 0.061313853 -0.25461403 0.013552112 -0.00986118
0.06554531 0.0012229597 0.05301662 -0.022498371 -0.1588488 -0.17612845 -0.12275166 0.14794822
0.087407686 0.06942599 -0.23840939 0.18108347 -0.03221028 -0.24652232 -0.14755131 -0.15739918
0.08681242 -0.034875758 -0.005987662 0.07404098 0.021897115 -0.1996274 0.20392206 -0.13490294
-0.035214316 -0.17140466 -0.048015013 -0.18972883 -0.0201668 0.12151635 0.0039719227 -0.17133433
-0.10541868 -0.18554704 0.009082175 0.0557737 -0.08531623 0.040654156 -0.10839321 0.18686481
0.12768228 0.14513999 0.01389162 -0.20576315 -0.006519986 0.15573652 -0.17722532 -0.17639369
-0.0009388765 0.0064272243 -0.00914865 -0.15689917 -0.025084024 -0.14356036 0.1356956 0.1515972
0.09442397 -0.113536514 0.096820146 -0.039430723 -0.0366426 0.09353035 0.028366927 -0.018828575
0.030824997 0.15780029 0.21997021 0.12791917 -0.11024941 -0.19848634 0.24060374 0.06336369

context_encoder.encoder.0.pool1.mlp.conv.bias f4 [8]
00000000: 060b 733b 251f 5f3a 9196 b43c 89d2 6db7
00000010: 5232 8737 455d 2737 169c 97b9 2fdf 48ba
0.0037085428 0.0008511416 0.022044452 -1.417532e-05 1.6116686e-05 9.975692e-06 -0.00028917257 -0.00076626515

context_encoder.encoder.0.pool1.mlp.batch_norm.weight f4 [8]
00000000: 37bb 803f 9aee 7f3f ce17 803f 4388 7a3f
00000010: 1002 793f 4edb 803f 6498 7c3f 6261 7e3f
1.0057133 0.9997345 1.0007265 0.9786417 0.9726877 1.0066926 0.9867003 0.99367344

context_encoder.encoder.0.pool1.mlp.batch_norm.bias f4 [8]
00000000: a308 003c 677f 6dbb 4274 de3b 0a19 beb8
00000010: c17c 88bc 39ef 3f3c dac4 e739 07b0 ab3b
0.007814559 -0.0036239268 0.0067887614 -9.06457e-05 -0.01666105 0.01171475 0.0004420642 0.00523949

context_encoder.encoder.0.pool1.mlp.batch_norm.running_mean f4 [8]
00000000: 3e0d 97bd d56c 64be 7f4e 413e ec8d 15be
00000010: 1a20 9cbe 0d0e 66be 799b 8cbe 9eb4 563e
-0.073755726 -0.22307141 0.188776 -0.1460492 -0.30493242 -0.22466297 -0.27462366 0.20967337

context_encoder.encoder.0.pool1.mlp.batch_norm.running_var f4 [8]
00000000: 94bb e73c 2d8f 053d 5137 9b3d a7dc a33c
00000010: 4d81 c33d ae70 0a3e 082e 133d 4722 af3d
0.028287686 0.032607246 0.0757891 0.020002676 0.095461465 0.13519546 0.03593257 0.0855146

context_encoder.encoder.0.lse2.mlp.conv.weight f4 [8, 8, 1, 1]
00000000: 618e fbbd ebd7 8e3e afce 9f3e 783f d53d
00000010: 8808 2cbd b13b 47be fe6a 24be b812 97be
00000020: aa3b 8e3e 3b23 fcbd 6b0c c1bd 00eb 15be
00000030: 7680 c13c 4da8 f43d aee0 933e 0f15 ed3d
00000040: f3cb e8bd afd2 633e e4e4 fcbd 52ea 843e
00000050: d3ec 963e 7a89 4ebe 9ac6 263d 93f6 0e3d
00000060: d25b 9f3e ff60 26be b4d7 25be 6c89 783e
00000070: 8d3d 90be 74e9 a63e 4204 5fbe 99f2 443e
00000080: 5df1 563e 09ed a63e 8d75 47be e685 aebe
00000090: f5b3 3dbd d804 cf3b 0d67 0dbe 99d9 783e
000000a0: 9de4 fc3d b504 89be ad18 4d3e c8a5 9b3d
000000b0: 8543 d4bd da64 d8bd b737 8abe 980d a2bd
000000c0: 1b73 f73d c471 423d 25d5 8e3e 83f6 643e
000000d0: f62b a4be 675e 36be f35d 9d3e b70a 86be
000000e0: 2e9a 5ebd 5266 323e 2eaf 7f3e b9f9 56be
000000f0: dd8c 893e e653 983e 7ab0 72be cdbb 9d3e
-0.12283016 0.27899107 0.31212375 0.10412496 -0.042000324 -0.19456364 -0.1605644 -0.2950647
0.27779895 -0.12311407 -0.09426197 -0.14640427 0.023620825 0.11946163 0.28882354 0.11576282
-0.11367025 0.22248338 -0.12348345 0.25960022 0.29477558 -0.2016963 0.040716745 0.03490312
0.3112474 -0.16247939 -0.16195565 0.24271172 -0.2817196 0.32599986 -0.21778968 0.19233169
0.2099051 0.32602718 -0.19478436 -0.3408653 -0.0463142 0.006317716 -0.13808842 0.24301757
0.12348292 -0.26761404 0.20028944 0.0759998 -0.10364441 -0.10566111 -0.26995632 -0.07912749
0.120825015 0.047471777 0.2789699 0.22359662 -0.3206479 -0.17809449 0.3073574 -0.2618005
-0.054346256 0.17421845 0.2496917 -0.20993699 0.26865283 0.2975151 -0.23700133 0.30807343

context_encoder.encoder.0.lse2.mlp.conv.bias f4 [8]
00000000: 9cff 253d 3519 923d 3be3 f83a d036 643c
00000010: d863 03bc 021d 09bd c5ac b0bd c7f9 9e3a
0.04052697 0.07133714 0.0018988618 0.013929084 -0.00801941 -0.03347493 -0.08626703 0.0012128883

context_encoder.encoder.0.lse2.mlp.batch_norm.weight f4 [8]
00000000: f675 813f bf43 813f d167 7c3f d2d8 7b3f
00000010: 5835 7c3f 391e 803f 9019 813f 199d 7a3f
1.0114124 1.00988 0.9859591 0.98377717 0.98518896 1.0009223 1.0085926 0.9789596

context_encoder.encoder.0.lse2.mlp.batch_norm.bias f4 [8]
00000000: e8b3 c43a afc4 0c3c de1a 3fbb 6c2c 8abc
00000010: 532a 3bbc 91c8 a3bb 49ae 00ba 7841 69bc
0.001500723 0.008591815 -0.0029160301 -0.016866885 -0.011423665 -0.0049982746 -0.0004908783 -0.0142368

context_encoder.encoder.0.lse2.mlp.batch_norm.running_mean f4 [8]
00000000: b7e9 a7bb f3ab 6a3e 2b29 143e b76c ce3d
00000010: 5cef 973c 8346 40be 9ebc 11bd 27d1 8a3e
-0.0051242965 0.22917156 0.1446883 0.100793295 0.018546753 -0.18776898 -0.03558027 0.27112696

context_encoder.encoder.0.lse2.mlp.batch_norm.running_var f4 [8]
00000000: 372e 193e 5b4b 0c3e e454 f43d 5fa5 9b3e
00000010: d9ef e63d 6ee7 973d 1ce0 0f3e fed2 a43d
0.14959036 0.13700621 0.11930254 0.30399606 0.11276216 0.074171886 0.14050335 0.08048056

context_encoder.encoder.0.pool2.score_fn.0.weight f4 [16, 16]
00000000: 85b4 95bd 46c6 8cbd eb71 b73d 27d8 84bd
00000010: 49e6 923b 3e05 073e dcb7 b2bd e97a b33c
00000020: 1cb9 043d 7a4b 343c fefd 033d 01cc 163c
00000030: ff67 d2bd c953 4f3d 3609 c1bd 0bcc 2b3d
00000040: 7638 d2bd c5d0 2fbd e9e3 c23d dace 383d
00000050: 84c0 bc3c 5c1c 2fbe bca1 ef3c 1f46 8ebd
00000060: 52a4 163d 0c71 ea3d 2ae7 8abc 1435 63bd
00000070: f97e b5bd ae7d bbbc 2f8d ddb9 3b11 bc3d
00000080: a983 e13d b87a 933d f2fd a4bd 72a1 d13d
00000090: 2313 f8bc b028 9f3d aa2c e13d ede7 bd3b
000000a0: 9a77 6dbd c4c7 79bd 7158 283c 934a 0bbc
000000b0: 0af7 613b 7206 913d 61bf 833c acd5 873c
000000c0: 8721 f33c ff46 6e3d b91d 063d df2b 85bd
000000d0: dca5 eabb 4320 d2bd 4bba 453d 7208 4abc
000000e0: df49 21bd c81b 9a3c 7d65 123d 1706 01bd
000000f0: 9f34 0abb b07f 52bc fae6 81bd 412c be3c
00000100: cbde 403c c5bd 09bc 625b ae3c 49b4 ea3c
00000110: 73c7 39bd 3377 ef3c 925b 2dbd f54c 84bc
00000120: 61f4 3d3d 3049 9ebd 9f21 51bc 4c79 ad3b
00000130: d72d a9bc 2f31 9b3c 4bc6 54bb 250a b93d
00000140: 6556 d8bc f11f 16be 2d18 ddbb f382 86bd
00000150: 0b14 97bc 2167 83bd 9e3d d03c a27f ff3d
00000160: 3f37 5c3b a0b5 e6bd 0fb0 c53c ab09 153c
00000170: 6b7d 49bb a6bb 643b b17c 3bbc ce2e c9bd
00000180: 9d02 f03d cabe 42bd 633f c6ba 4b20 ca3d
00000190: 739a c33b e11b 2fbd 9da0 3b3d 24b3 a43c
000001a0: f412 203c 24e5 253c 54bc ac3d d0e0 10bd
000001b0: 2bd5 ae3d 0ba0 823d 9c88 0fbb fc11 f2bd
000001c0: 6709 283b 9c70 68bd df86 9b3d d675 4d3d
000001d0: 6e39 583d aeb7 34bd 89e3 ba3c bfbe c3bd
000001e0: c188 28bd b61d 06bc 9281 66b8 2378 b4bc
000001f0: 7b30 e53a 303d 7f3b 47d0 c73c b79b 0b3d
00000200: 994c 81bc 0cea c2bb 09bb 603c 4880 3f3d
00000210: 6a3a 1dbd 132d 1ebc b977 da3c 342a 8dbc
00000220: 9cf2 3ebd 6e2b 0dbb d142 2e3d ac8c 043d
00000230: 5c3b d9bc f34b 813d ac28 d93c 9409 bebd
00000240: ae10 db3a ddab 293c 5174 ea3c dfe9 71bd
00000250: 8653 11ba 8b99 55bd bcd1 17bc e3ad babc
00000260: 5604 313d cc97 ea3c e5e9 74bc a199 0b3c
00000270: a143 803d 56ca 113d 3bea 06bd 59fd ccbd
00000280: 6d94 a83c da09 a93c c8b7 06bd f58e 1d3c
00000290: 61c4 2d3d 8e85 20bd 75d4 1abd eb15 d2bc
000002a0: 9c67 b53d 4123 543c 41bf c13a c8bd 6b3c
000002b0: 9a11 f53c 20a4 62bd 8bf6 e4ba 161e f43d
000002c0: 69c9 863d 63d1 803d bab4 7b3b 891f 623b
000002d0: 562c 4d3b bb09 a83a c9a7 803d c3be 87ba
000002e0: bd8d 4cbd 1b34 cf3b 9231 27bd 9e83 99bd
000002f0: 2e3f 31bd 94ce 9f3b 68f4 953c d913 883c
00000300: 9d35 7bbc 5181 2fbd 950e 00bd 576c 0a3d
00000310: 9031 0c3d 491f a53d 7321 1ebd a9bd 7bbd
00000320: b79f 2abd c666 debd 9b0b 1c3d 3fcf e5bd
00000330: a6bf 2e3d b212 9ebc ca4e c6bc 643c dd3d
00000340: 2e98 f83c be29 aebc c7a2 be3c 12fe 6bbc
00000350: b9f0 c73b 55a7 d23c b582 3b3c 32f2 b0bc
00000360: 4aae 923c febc 97bd b616 433d daa8 773d
00000370: 1aa0 803d 5c7c c43a 7f64 853c 49bf b9bd
00000380: e494 38bd ddf0 893d 61df cabd 1038 e6b9
00000390: 838c 443c c475 c33d cb31 023d a3ea 17bd
000003a0: f76c ac3d 8f2b 2cbc 8e9b b83c 0ba3 13bc
000003b0: ef53 b83d bfa9 4dbd 3869 e73d 269d 203d
000003c0: bddf 46bc 342d ffbc 8e9d cf3d 0db7 f03d
000003d0: 08d9 b03c 56fa 41bd 3bc0 c43d fec3 ca38
000003e0: e40f 033e 9c28 553d 439e 06bd 1988 8abc
000003f0: c3d8 983d d719 c7bb 6883 eb3d 8ab3 c53d
-0.07309822 -0.06873755 0.08957275 -0.0648654 0.0044830185 0.13185593 -0.08726475 0.021909194
0.032403097 0.011004323 0.032224648 0.009203912 -0.10273742 0.050617013 -0.09425585 0.041942637
-0.10264675 -0.042923708 0.09516127 0.045119144 0.023041017 -0.17100662 0.029251926 -0.06946968
0.0367778 0.11447343 -0.01695593 -0.05547054 -0.08862109 -0.022887077 -0.00042257595 0.09182974
0.1101144 0.07201141 -0.08056249 0.102358714 -0.030282563 0.077714324 0.10994847 0.00579547
-0.05797539 -0.060981527 0.010274992 -0.008501667 0.0034479522 0.070813075 0.016082468 0.016581379
0.029679073 0.058173176 0.03274319 -0.06502508 -0.0071608853 -0.1026006 0.048273366 -0.012331115
-0.03937709 0.018812075 0.035741318 -0.03149995 -0.0021088494 -0.012847826 -0.063428834 0.023214461
0.011771868 -0.008407061 0.02128381 0.02865042 -0.045356225 0.029231643 -0.042323656 -0.016149977
0.046375636 -0.07728803 -0.012764364 0.0052940007 -0.020651741 0.018944351 -0.0032466825 0.09035138
-0.026408384 -0.14660622 -0.0067472667 -0.06567945 -0.018442174 -0.06416155 0.025420006 0.12475516
0.0033602265 -0.11265111 0.024131803 0.009096543 -0.003074492 0.0034901886 -0.011443303 -0.098233804
0.117192484 -0.047545232 -0.0015125092 0.09869441 0.0059693395 -0.042751197 0.04580747 0.020104952
0.009770144 0.010125432 0.08434358 -0.035370648 0.08536752 0.06378182 -0.0021901494 -0.118198365
0.002564037 -0.056748018 0.07594084 0.050161205 0.052789144 -0.044120483 0.022813575 -0.09557866
-0.041146044 -0.008185795 -5.4956945e-05 -0.022029942 0.0017485762 0.0038946383 0.024391307 0.034084048
-0.015783595 -0.0059483107 0.013716468 0.046753198 -0.038385786 -0.009654301 0.026668416 -0.017232038
-0.04661809 -0.0021540779 0.04254419 0.032360718 -0.026517563 0.06313314 0.026508652 -0.09279171
0.0016713345 0.010355917 0.028619917 -0.059060927 -0.0005543757 -0.052148383 -0.009266313 -0.022787994
0.043217026 0.028636836 -0.014948343 0.008520515 0.06262899 0.035593353 -0.032938223 -0.1000926
0.020578587 0.02063458 -0.03289011 0.009616603 0.04242361 -0.039189868 -0.03780027 -0.025645217
0.088576525 0.012947858 0.001478173 0.014388509 0.02991562 -0.055332303 -0.0017468495 0.11919801
0.06581385 0.06289937 0.0038407282 0.003450366 0.0031306944 0.0012820283 0.062820025 -0.0010356534
-0.04993986 0.00632335 -0.04081876 -0.07495807 -0.043273143 0.004876921 0.018305019 0.016611027
-0.015332607 -0.042847935 -0.031263907 0.033794727 0.034226954 0.08062608 -0.03860612 -0.06146017
-0.041656222 -0.10859446 0.038097005 -0.1122117 0.04266324 -0.019296024 -0.024207491 0.10802534
0.030346002 -0.021260139 0.023270978 -0.014403837 0.0061016944 0.025714556 0.011444737 -0.021599863
0.017905373 -0.07409094 0.04762908 0.060463764 0.06280537 0.0014990675 0.016283272 -0.09069688
-0.04506387 0.06735394 -0.099058874 -0.00043910788 0.011996391 0.095439464 0.031785768 -0.037089
0.08419221 -0.010508432 0.022535112 -0.00901104 0.09000384 -0.05021071 0.11299366 0.03921237
-0.012138304 -0.031149484 0.10137473 0.11753664 0.021587864 -0.04735788 0.096069776 9.668617e-05
0.1279903 0.05204068 -0.032865774 -0.0169106 0.07463219 -0.0060760784 0.11499673 0.09653385

context_encoder.encoder.0.pool2.score_fn.0.bias f4 [16]
00000000: d82d 2b3c 5fed 6e3c 1acb b8b3 a62b 51b3
00000010: 1b99 96bc 06b9 c735 1697 8633 094e 0cb6
00000020: 125f f934 4ed4 0935 7831 2a3c ed0b 8a3b
00000030: c32a 89bc 7e63 7f3c 7846 8734 a62e 36b6
0.010447942 0.014582961 -8.605112e-08 -4.8701303e-08 -0.018383553 1.4880504e-06 6.2673436e-08 -2.0907048e-06
4.6449037e-07 5.134542e-07 0.010387771 0.0042128474 -0.016744023 0.015587686 2.5196982e-07 -2.7147266e-06

context_encoder.encoder.0.pool2.mlp.conv.weight f4 [16, 16, 1, 1]
00000000: 595e 2c3e 9b34 3fbe f5d8 b9bb 0fd5 49bb
00000010: 8867 fcbd c63c 1cbe 2085 f63d 1e63 80be
00000020: 3dc7 04be 9a6c 34be 390f ee3d 1dd1 03be
00000030: a6dc cd3d eba1 d8bd 46e8 a9bb 6992 743e
00000040: d729 c3bd e8e7 45be 4793 e13d 719a 753d
00000050: ab69 f3bd 5a58 263e 4b31 fdbd 9809 483e
00000060: ba4e ab3d 0a86 72be 5a25 7abe 7657 d7bd
00000070: 5104 ae3d c8bc 80be 9005 09be 32cc 623e
00000080: 5ac5 e0bd bf96 343e b3a2 0bbe ba82 643d
00000090: a21f 6d3e 0bc1 79be 8841 20be a8f6 6d3e
000000a0: 66bb ab3c 9efb 393e 9e77 97bd 1f63 2d3e
000000b0: 45d5 313e 4f86 c5bd 8cb2 093e 7e86 cebd
000000c0: 5e22 303e 69f8 39be 2349 f93b 151d c8bd
000000d0: 98ea ab3d 8079 38be 4ec0 cebd 758d 24be
000000e0: 7886 34bd 4fa6 193e c33f 11bd cd55 67be
000000f0: 0ece 59be a707 d13d 3208 353d ba13 c3bd
00000100: 0df7 81bd 099b 073e f986 753e 6e08 2b3c
00000110: b3a1 213d 8f4c 423e 28f7 463d 6491 ddbd
00000120: 0659 47be f938 853e 5559 22be da54 2c3e
00000130: 9c0a dbbc 8d3e eabd 75a9 a8bd 913b a43c
00000140: c3a2 203e fed2 653e f0ea d53d 8324 4ebe
00000150: c4b1 4cbd fdaa 41be 81dd 4c3d c52c 2abe
00000160: 4495 66be 6689 32be bfc6 7ebe 5f6e 29be
00000170: 2f76 123d 2fbb cc3d 383d 72be 1089 85bd
00000180: 0bbf 6f3e df60 09be 901c 173e eba1 66be
00000190: 03a3 3b3e a93b 6abc d888 1a3e 134f d3bd
000001a0: 6365 cf3d 66af 47be f1dd 323e e3cb 11bd
000001b0: 4485 c1bd 3ebf 15be 1578 b33c 3bcd 76be
000001c0: 8572 77be 71a2 e83d e20a c93d 4b6e 703e
000001d0: ad46 2f3e b6a0 af3d ef20 a3bc fa96 283e
000001e0: f901 52be 0876 16bd e7e0 053e d243 b73d
000001f0: 12a8 0ebe 83a8 493e c847 333e 404e 5d3e
00000200: 8f76 69be 405a a33d 4c25 b23d 6da4 5abd
00000210: 9f8e d73d c70b 3f3e 48b5 68be 56ad 46bd
00000220: 6bd1 343e 4ac4 56be 50bf 31bd 91d6 69be
00000230: 5045 f7bd e2aa 3dbe 39da 68be 6148 d13d
00000240: adba 053d d26d d3bd 1ce4 f53c 659b 2dbd
00000250: 9254 4b3e 04bc 703e fc1b 3abe b808 9d3d
00000260: 72f0 59bd 4164 73be ca51 203e 2fa0 29be
00000270: f1ed 003e a8b5 9e3d 627c 43be 2e69 a2bb
00000280: b592 aa3d 3e64 d3bd 9371 a9bd 340f c63d
00000290: 12d5 093e 1a6b 423e 7090 eb3d 811c c93d
000002a0: c6b0 473e e0f4 a83c 6589 b8bd 0526 bfbd
000002b0: 436d 07be 2694 183d 5dae bcbd 5634 0fbe
000002c0: 88a8 043e d311 81be db72 35bd 687e 773e
000002d0: f9a1 673d 86d2 c03d 324a 623c 79ec 583e
000002e0: ba75 253c 798e b7bd ab82 8dbd 56b8 273c
000002f0: a889 5d3d 7841 dbbc a872 b0bd 1fa1 72be
00000300: 3ebd 3f3e 0223 1bbe 866f 03be a0d6 7b3e
00000310: c859 093d 862e 51be 51fd e43d 6c8a 213e
00000320: 7db0 543e a193 4e3e 06b7 36be d35f 1dbd
00000330: 7d8b 24be c4a9 eebd 2f6c 46be 0662 043d
00000340: 5b97 10be c97c 8ebc 6f45 853e 689b 8c3d
00000350: 76ed 463d 068a 45be 216b 453d 67e9 d13d
00000360: 77bd 1c3d 5152 bbbd fd00 78be 669d 4dbe
00000370: cdbd 16be 6575 4a3e a8fd 173e ed4a a6bd
00000380: b49d 003c 1fa1 563d 13ee 3c3e 94e9 03be
00000390: f9b1 453e 6d0a 6b3e 82de 083e 1464 45be
000003a0: 63ca 49be 07ab 433e 96ea 99bd 93f2 673e
000003b0: 9567 fa3d 9e8a 7c3e 9ab0 ee3d 0d69 61bd
000003c0: 98b8 1cbd cb7d 4cbe f083 4c3e 92b1 50be
000003d0: ff37 46bd 3db1 d33d 703a 0e3e 9a8c 3f3e
000003e0: 1455 03bc 6abe 6b3e 1648 2b3e 52f6 513e
000003f0: 9544 05be 5e87 6d3e c6e9 183e 2593 72be
0.16832866 -0.18672411 -0.0056716152 -0.0030797159 -0.123244345 -0.15257558 0.1203711 -0.2507562
-0.12966628 -0.17619553 0.11623997 -0.12872739 0.10051851 -0.105777584 -0.00518516 0.23883976
-0.09529465 -0.19326746 0.11014419 0.05996174 -0.11885389 0.16244641 -0.123629175 0.1953491
0.08364625 -0.23683944 -0.24428311 -0.10514729 0.08496917 -0.2514403 -0.13381028 0.22148207
-0.10975142 0.1763563 -0.13636284 0.055788733 0.23156598 -0.24390046 -0.15649998 0.23238623
0.020963382 0.1816239 -0.07395862 0.16932343 0.17366512 -0.09644758 0.13447016 -0.10084246
0.1720061 -0.18161167 0.0076075955 -0.09771172 0.083943546 -0.18015099 -0.10095273 -0.16069587
-0.044073552 0.15004848 -0.0354612 -0.22591324 -0.2127001 0.10206538 0.04419727 -0.09525247
-0.06345949 0.13242735 0.23977269 0.0104390215 0.03946085 0.18974517 0.04857555 -0.10818747
-0.19467553 0.2602003 -0.1585439 0.16829243 -0.026738457 -0.11437712 -0.08235446 0.020047935
0.15687089 0.22443768 0.104452014 -0.20131116 -0.049974218 -0.18912883 0.05001593 -0.1661864
-0.22517878 -0.17435226 -0.24880503 -0.1654601 0.03575724 0.0999664 -0.23656166 -0.06520283
0.23412721 -0.1341586 0.1475699 -0.22522704 0.18323903 -0.014296451 0.15091264 -0.103178166
0.1012676 -0.19500503 0.17467476 -0.035594832 -0.094492465 -0.14623734 0.021907846 -0.24101727
-0.2416478 0.11359108 0.09816529 0.23479573 0.17116804 0.08575575 -0.019913165 0.16463843
-0.20508565 -0.036733657 0.13074075 0.089484826 -0.13931301 0.19693188 0.17507851 0.21611881
-0.22799133 0.07976198 0.0869852 -0.053379465 0.1052525 0.18656836 -0.22725403 -0.04850515
0.17658012 -0.20973316 -0.04339534 -0.22835757 -0.12073767 -0.18522218 -0.22739495 0.10218883
0.03264873 -0.10323681 0.030015998 -0.042384524 0.1985648 0.23509222 -0.18174738 0.076676786
-0.053207822 -0.23768713 0.156562 -0.16565011 0.12590767 0.07749492 -0.19090417 -0.004956386
0.083287634 -0.10321854 -0.08273616 0.096708685 0.13460186 0.18986169 0.11502159 0.0981989
0.19501027 0.020624578 -0.09010581 -0.093334235 -0.13225274 0.03725066 -0.09212945 -0.13984808
0.12954915 -0.2520891 -0.044298988 0.24169314 0.056550954 0.09415154 0.013811635 0.21183957
0.010098869 -0.089627214 -0.069096886 0.01023682 0.054086357 -0.026764616 -0.08615619 -0.23694275
0.18724534 -0.15150073 -0.12835512 0.24593592 0.033532888 -0.20427904 0.11181129 0.1577546
0.2077045 0.20173503 -0.17843255 -0.038421463 -0.16068836 -0.11653474 -0.19377206 0.032320045
-0.14120238 -0.017393487 0.26029536 0.06865579 0.048566304 -0.19290933 0.04819787 0.10249596
0.038266625 -0.0914656 -0.24219127 -0.20079574 -0.14720841 0.19771345 0.14842856 -0.0811976
0.007850099 0.05239975 0.18450193 -0.12882072 0.19306172 0.22953196 0.1336613 -0.19276458
-0.1970611 0.1910821 -0.07515447 0.22651128 0.12226788 0.24662253 0.11654778 -0.055031825
-0.03826198 -0.19969861 0.19972205 -0.20380238 -0.048393246 0.1033654 0.1388948 0.18705979
-0.00801589 0.23021856 0.16726717 0.2050412 -0.13014443 0.2319617 0.14932927 -0.23688944

context_encoder.encoder.0.pool2.mlp.conv.bias f4 [16]
00000000: 3150 6f39 4a77 a43a 0093 8838 4e0c 1f3c
00000010: 9ce2 59bb 0f40 d639 2de1 4f3c 689f c83a
00000020: 6f91 8cb9 546f f9bb f007 6a38 f1ed 8b3c
00000030: 608d b238 9791 873a baa3 6b3a 6075 d739
0.0002282269 0.0012547758 6.512366e-05 0.0097075235 -0.0033246642 0.00040864988 0.012687963 0.0015306296
-0.00026811237 -0.0076121483 5.579734e-05 0.017081233 8.5140346e-05 0.0010343072 0.0008988936 0.00041095447

context_encoder.encoder.0.pool2.mlp.batch_norm.weight f4 [16]
00000000: b04d 7f3f cc31 7d3f 15ab 7f3f 9498 7e3f
00000010: 6927 7b3f 0d30 7c3f 5ad2 813f 5a27 7e3f
00000020: 634d 7b3f c623 7b3f b605 813f de18 803f
00000030: ef83 7f3f 4ae5 7f3f e4d5 803f 95bb 783f
0.99727917 0.9890411 0.99870425 0.99451566 0.9810701 0.9851082 1.0142319 0.99278796
0.9816496 0.9810146 1.0079868 1.0007589 0.9981069 0.9995924 1.0065274 0.9716123

context_encoder.encoder.0.pool2.mlp.batch_norm.bias f4 [16]
00000000: c477 263b dbaa 07bc 0165 793b 0e5c b6ba
00000010: e942 09bc c498 153c f7c6 ec3b 6e8a ea38
00000020: 305e 5cbc 77a4 2bba 144a 7f3c bd85 cc3a
00000030: dfd4 973b 422c a33b 9188 91b9 1831 54bc
0.0025400976 -0.008280481 0.0038054588 -0.0013912932 -0.008377769 0.00913066 0.007225867 0.00011183774
-0.01345019 -0.00065476395 0.015581626 0.0015603822 0.0046335305 0.004979641 -0.00027758305 -0.012951158

context_encoder.encoder.0.pool2.mlp.batch_norm.running_mean f4 [16]
00000000: fce2 4dbe cfc9 7ebd 0a6b b53c d352 90be
00000010: b919 3f3e b875 babe a1cb 15be ecca ac3e
00000020: a36c 63be 0b19 013c 9c8f 4f3d 89b4 a43d
00000030: 1ce4 4abd 5afe b6bd 1ae7 973e 0ef8 6d3e
-0.20106119 -0.06220418 0.022145767 -0.2818819 0.18662156 -0.36417937 -0.1462846 0.33748567
-0.2220941 0.007879506 0.050674066 0.08042247 -0.04953395 -0.089352325 0.29668504 0.23239157

context_encoder.encoder.0.pool2.mlp.batch_norm.running_var f4 [16]
00000000: 6e34 083e 34a9 843d ed19 343e 5580 223e
00000010: 3573 933e f4bc 163e b8e1 043e 0746 823d
00000020: 06de d73d 80fd 4d3d 121c 063e 2dec b13d
00000030: 5f80 353e 30ce 213e 0465 443e 56d8 bf3d
0.1330125 0.064775854 0.17588015 0.15869267 0.28798833 0.14720517 0.1297673 0.06361013
0.105403945 0.050290585 0.13096645 0.08687625 0.17724751 0.1580131 0.1917916 0.09367435

context_encoder.encoder.0.mlp2.conv.weight f4 [32, 16, 1, 1]
00000000: c7e6 5f3d 183f 4e3e ecd7 703e de24 653c
00000010: bfa9 b8bc fff1 0e3e b300 06be c715 d5bd
00000020: 6888 42be ef8a 243e f159 c3bd abb8 c53d
00000030: 2aac f739 ba5a 66bd 1778 68be 5a0b 1c3e
00000040: 9e7f 05ba ca19 363e 3fd0 06be 8965 babc
00000050: 5339 5d3e 27fc 1e3e 112f aa3d 4f42 92bd
00000060: 7ed3 44be 716f 2b3e fd75 793e b4d7 753d
00000070: 5c5b 05be 84a5 2ebe 5374 04be 6755 0f3e
00000080: c7d6 4fbe e74f e53d e72a 4c3e ba9d 80be
00000090: 9f52 0dbe 2d53 0cbe c747 f53d 6eee e23d
000000a0: 3585 0abc 3811 5c3e 0970 193d 910e 01be
000000b0: 8c5a 4fbe 7452 c13d 4778 08bd bfac ba3d
000000c0: 5128 afbd 1417 683e 9e98 13be 45e8 c7bd
000000d0: 4092 c53d f998 06be 4f3a 32be b7bb 0d3e
000000e0: d703 2ebe 3451 58be cedd 4ebe e2c0 e83d
000000f0: 5183 bdbd b321 18be b006 bebc dd9b b1bd
00000100: 07ff 18be 946c 2b3c 6d63 963d d043 753e
00000110: d76d 0cbb 6903 b93d 1b3b f03d 572f 703e
00000120: 19c2 323e 1e7d 593e 2367 d93c 89b2 5e3e
00000130: 5c26 843b 2285 5ebe a6a2 81be 31a7 563e
00000140: 85e2 a5bd 7216 693e a076 b6bd 2339 713d
00000150: 6f21 0bbd 3d28 38bd d844 973c e32c 073e
00000160: 16a8 35be b6b3 ecbd 05b7 633e 8ec7 ebbd
00000170: cd27 b8bd db34 403e eaf5 79bd 493e afbd
00000180: 19a6 e83d 0ef3 32be 983a 4bbe 796e a13d
00000190: 483b 3dbe bb17 b83d 3478 f33a 5609 363c
000001a0: 26b3 db3c 5d8d 80be 5ebb d83d 7e3c 17bc
000001b0: 6a03 75be edb0 92bd f9dc 2a3e 266f 3f3d
000001c0: 5944 f7bd 9025 3e3e 6bd2 a53c 6461 703e
000001d0: 6397 00be 5e68 223e 74c0 6e3e 39c8 0a3e
000001e0: 1504 773e a327 fdbd c5aa 083d e0b6 933d
000001f0: f26a 623e 15c4 76be e37a 803d de4c 753e
00000200: e630 76be 7145 f73d a423 71be c3bc 7a3e
00000210: 202c 32be 9b5f f6bc c506 473e 906f 463e
00000220: 0c76 043d 04fb e83d 6d23 3e3c c1de 373d
00000230: daf0 b93d 7c2a 453e 3fd3 313d 81db 03be
00000240: 3d78 44bd 301c 66be bb4c 253e 9e7a 8cbd
00000250: 5f9f ba3d 4266 5bbc 0f4a 943d 2037 c13d
00000260: 424c 9abd b12d 2fbe 282f 6b3e f4ea cebc
00000270: 1de7 cd3c 443a 113e 3b26 ddbd e927 e2bd
00000280: 710e 22be 89e2 37be d88f a2bd c6e0 313e
00000290: 5444 22bd 7867 2fbb dfef 1c3e 512f 843c
000002a0: adbd 063d ba6a 46bd a106 523e 174a cd3d
000002b0: 9fe3 0ebe ce93 6ebe f56e 023e 6ce6 94bd
000002c0: e1e0 09be 4da3 a6bc 9c1b 263e ff03 023e
000002d0: 1b68 04be 2ba2 5abe 938f 853c 27ea 393d
000002e0: aee7 88bd 7ffb e9bd ccf0 fbbd 03fa 1c3e
000002f0: 58a9 e3bd 85d0 37be 16b3 f23d 02a8 843d
00000300: eabf a1bd 06db 223d 3383 62be 4d38 5bbe
00000310: 99e1 c7bd 1030 63be 36db 683e becd 513e
00000320: 5238 1f3e e4f3 6abe 9501 80be ea18 a0bd
00000330: 459c 003e 26d0 003e 44b9 233e b4eb 5bbe
00000340: 937a 4ebd c83f e2bd 3a30 9bbb 7c1a 21be
00000350: d88a 293e af79 ca3d ff44 4ebd bc5b 43be
00000360: 1285 3d3c 358d 4b3e 2e54 8fbd 80d9 bdbd
00000370: bd1f 3f3e 5a1d 2f3e 60ed 64be 781e 613b
00000380: 20cf 2abe 01d4 cf3d e0bd 003e a424 60bd
00000390: 0e9b 353e 6b53 133e 1351 1bbe 9a8d 813a
000003a0: cc65 4e3e d463 8abd 4e3e 013e aef9 ad3d
000003b0: 7a8c 40be 6a14 6e3d 255b a13d 7a10 fbba
000003c0: 8e12 d23d 3cb6 27be cdf9 45be ccfc be3d
000003d0: 1878 9e3d 9ff7 71bd 1106 e3ba d5eb 443e
000003e0: 3e3b 83bb 832d 273e da4d eabd 35ff 9dbd
000003f0: 8484 70be 4d22 6a3e 0964 18be cedb f4bd
0.054663446 0.20141256 0.23519868 0.013985841 -0.022541879 0.13959502 -0.13086204 -0.10404544
-0.18997347 0.16068624 -0.09538639 0.09654363 0.00047239783 -0.056238867 -0.2270206 0.15238705
-0.0005092564 0.17783275 -0.13165377 -0.022753494 0.21603899 0.15525876 0.083097585 -0.071415536
-0.19221303 0.1674173 0.24361415 0.060020164 -0.13023132 -0.17055327 -0.12934999 0.13997422
-0.20296775 0.11196881 0.19938241 -0.25120336 -0.13801049 -0.13703604 0.11976581 0.11080633
-0.008454611 0.21490943 0.03746036 -0.12603213 -0.20249385 0.09439555 -0.03331783 0.0911498
-0.085526116 0.22665054 -0.14413688 -0.09761099 0.096470356 -0.13144292 -0.17405055 0.13841139
-0.16993652 -0.21124727 -0.202018 0.113649145 -0.09253562 -0.14856605 -0.023196548 -0.08672307
-0.14941035 0.010462899 0.07343183 0.2395165 -0.0021427774 0.090338536 0.117300235 0.23455559
0.17456855 0.21239135 0.026538437 0.21747793 0.004032893 -0.21730474 -0.25319403 0.20962216
-0.08099846 0.22762468 -0.08909345 0.05889238 -0.03396743 -0.04496025 0.018465444 0.13200717
-0.17739901 -0.11557715 0.22237785 -0.115126714 -0.089919664 0.18770163 -0.061025538 -0.08556802
0.113598056 -0.1747553 -0.1984657 0.07882399 -0.18479645 0.08988901 0.0018575252 0.011110624
0.026818823 -0.25107852 0.105826125 -0.009230731 -0.23927084 -0.07162652 0.16685857 0.04673686
-0.12073583 0.18569016 0.020241937 0.23474652 -0.1255775 0.15860125 0.23315603 0.13552941
0.24122651 -0.12361076 0.033365984 0.07212615 0.22111109 -0.24098237 0.06273439 0.23955104
-0.24042091 0.12073792 -0.23548752 0.2448607 -0.17399645 -0.030074885 0.19436176 0.19378495
0.03233914 0.113760024 0.011605126 0.04489017 0.09079142 0.19254488 0.04341435 -0.12876703
-0.04796623 -0.2247169 0.16142552 -0.06859325 0.09112429 -0.013391079 0.07240688 0.094343424
-0.07534076 -0.17107274 0.22967207 -0.025258519 0.025134617 0.14182383 -0.107983075 -0.110427685
-0.15825821 -0.1795751 -0.07937592 0.173709 -0.039615944 -0.0026764553 0.15325879 0.016135843
0.032895733 -0.048441626 0.20510341 0.10023897 -0.13954018 -0.2329857 0.12737639 -0.07270512
-0.1346469 -0.02034154 0.1622147 0.12696837 -0.12930338 -0.21350925 0.016303813 0.04538932
-0.066848144 -0.11424922 -0.12301788 0.15329747 -0.11116284 -0.17950638 0.11850564 0.064773574
-0.07897933 0.03975966 -0.22120361 -0.21408196 -0.09759826 -0.22186303 0.22739872 0.2048864
0.15548828 -0.229446 -0.25001207 -0.07817252 0.12559612 0.12579402 0.15988642 -0.21476632
-0.050409865 -0.110473216 -0.0047359737 -0.15732759 0.16556871 0.098864906 -0.05035877 -0.19077963
0.011567371 0.19878085 -0.06998478 -0.092700005 0.18664451 0.1710104 -0.22356176 0.0034350436
-0.16680574 0.101478584 0.12572432 -0.054722443 0.1773493 0.1438729 -0.15167646 0.000988412
0.2015602 -0.06757322 0.12621424 0.08494888 -0.18803588 0.058124937 0.078787126 -0.0019154691
0.10257445 -0.1637811 -0.19333573 0.09325561 0.0773775 -0.05907404 -0.0017320534 0.19230588
-0.004004865 0.16325955 -0.1144063 -0.077146925 -0.2348805 0.22864647 -0.1488191 -0.11955987

context_encoder.encoder.0.mlp2.conv.bias f4 [32]
00000000: c457 4e3b 36f7 e2ba 1490 cf39 ec61 c935
00000010: 6926 2cb7 b148 0ebc 04a5 7e36 bfbe 9b3c
00000020: c484 4e3c 6ab0 9fbc 63db dd37 0c97 3036
00000030: 22bd b43b a447 7337 2721 a8bb 17ed 91bc
00000040: 46df 3c37 8772 ff36 2f6d f93b 4d61 46b7
00000050: d9c1 f8b6 9185 50b6 c914 ad36 6275 2c3b
00000060: 98f3 9dbc 944a 2436 0278 5a36 800d afbc
00000070: 0bfd 77b9 e8ad 423c 42fa 8cbc dc2a 0639
0.0031485418 -0.0017316106 0.00039589463 1.5004166e-06 -1.0260942e-05 -0.008684323 3.7945001e-06 0.019011853
0.012604896 -0.0194933 2.6447413e-05 2.6313965e-06 0.0055157105 1.4500609e-05 -0.005130905 -0.017813249
1.1257658e-05 7.612925e-06 0.0076118927 -1.1824374e-05 -7.413543e-06 -3.1072161e-06 5.1582215e-06 0.0026315083
-0.019281194 2.4481315e-06 3.2554385e-06 -0.021368742 -0.00023650021 0.011882283 -0.017209176 0.00012795202

context_encoder.encoder.0.mlp2.batch_norm.weight f4 [32]
00000000: e776 803f 0885 7d3f 4f07 7c3f a535 803f
00000010: 7401 803f d36c 7e3f a3e5 7a3f a815 7f3f
00000020: e330 7c3f f957 803f 044e 7f3f fbfb 7c3f
00000030: 976f 7c3f 2c23 7a3f 8b6f 7b3f 7a81 7e3f
00000040: 3ee2 813f 54db 7d3f 87ce 7b3f a8ce 7f3f
00000050: af16 7f3f bf31 7e3f 5a64 7b3f 3465 7e3f
00000060: b6b9 7d3f 6669 7f3f d6f8 7e3f f5db 783f
00000070: 2466 7c3f 8eb9 7f3f efac 7c3f 9f22 7f3f
1.0036286 0.99031115 0.9844865 1.0016371 1.0000443 0.993848 0.9800665 0.9964242
0.98512095 1.0026847 0.9972842 0.9882199 0.9860777 0.9770992 0.98217076 0.99416316
1.0147169 0.99162793 0.9836201 0.9992471 0.9964399 0.99294657 0.982 0.99373174
0.991115 0.997702 0.99598444 0.9721063 0.98593354 0.9989251 0.98701376 0.996622

context_encoder.encoder.0.mlp2.batch_norm.bias f4 [32]
00000000: a820 84bc 8eb1 acbb d812 4b3c 0d4b 663b
00000010: ab9f 703c 8e31 86bc 1240 2dbb 1217 663b
00000020: 131c 00ba 9bc3 5e3c b2b8 433b 914b ec3b
00000030: e616 733b 0eaf 08bb 62c2 b53b 1337 14bc
00000040: 1083 023b f221 d83b 9980 c33a 23c3 563c
00000050: 1c77 fabb b75d ff3b fb24 db3b 2259 9e3c
00000060: e128 713a 2a67 14bc 38f9 a43c 9bbb 893a
00000070: f4d3 f0bb 91da 123c 091d a2ba 0ac2 5dbb
-0.016128853 -0.0052701896 0.012394629 0.0035139949 0.014686505 -0.016381051 -0.0026435894 0.0035108966
-0.0004886996 0.013596441 0.0029864726 0.0072111567 0.0037092506 -0.0020856294 0.005546854 -0.009046334
0.0019914545 0.0065958435 0.0014915644 0.013108048 -0.0076435935 0.007793154 0.006687758 0.019329611
0.0009199512 -0.009057799 0.020138368 0.0010508181 -0.0073494855 0.008963243 -0.0012368272 -0.003383758

context_encoder.encoder.0.mlp2.batch_norm.running_mean f4 [32]
00000000: 8218 813d b558 e13d 9e76 86bd 3c42 9fbe
00000010: e5d4 9f3e acc5 76bc ff92 0fbe be77 d73e
00000020: 55fa 333e 1fff 94bb bf28 e4bc 9be1 f3bd
00000030: 186f 28be 4410 50bd 2420 093e dfcf dfbd
00000040: 2427 033e eed9 82bd d099 a23e d6ca 57be
00000050: ecb8 ab3d 750f cb3d 17c0 a7bd 05ad 6a3d
00000060: e1ff d93d 9795 18be a1ef 06bd ff54 4cbd
00000070: 6e63 d43c f3d6 a43e a2ba 06be 8607 4dbe
0.063035026 0.11003248 -0.06565593 -0.3110522 0.31217113 -0.015061777 -0.14020918 0.42083544
0.17575963 -0.0045470144 -0.02785146 -0.11908265 -0.16448629 -0.050796762 0.13391167 -0.1092832
0.128079 -0.06389223 0.31757975 -0.2107347 0.083848804 0.099150576 -0.08190935 0.05729391
0.10644508 -0.14900814 -0.03294337 -0.049885746 0.025926318 0.32195243 -0.13157132 -0.20022401

context_encoder.encoder.0.mlp2.batch_norm.running_var f4 [32]
00000000: 61c8 c13d c205 413d dda8 003e 3b68 2d3e
00000010: 91a9 073e aaed b03d 0732 4a3d 4ed0 273e
00000020: a3c9 4f3e a365 f73d e929 423d 186e ec3d
00000030: 53cf 1e3e 01a7 c73c e4bb 023e 542e 1d3e
00000040: 3118 943d 7aa4 1e3e b9f9 ba3d f1a4 133e
00000050: 198d 723d dd24 213e a20d b73d 9878 453d
00000060: 1c02 ad3e 4204 243e e489 8a3d e55a 123e
00000070: cdb1 363e 70b4 033e 43f0 373e 4d23 843d
0.09462047 0.04712463 0.12564416 0.16934292 0.13248278 0.08639081 0.049364116 0.16388056
0.20291762 0.120799325 0.04740325 0.11544436 0.15508775 0.024371626 0.12766987 0.15349704
0.07231177 0.1549243 0.09129662 0.14418389 0.059216592 0.15736718 0.08938147 0.04821071
0.33790672 0.16017249 0.06764582 0.14292486 0.17841263 0.128618 0.17962746 0.064520456
